{"format": "graph-model", "generatedBy": "2.6.2", "convertedBy": "TensorFlow.js Converter v3.15.0", "signature": {"inputs": {"waveform": {"name": "waveform:0", "dtype": "DT_FLOAT", "tensorShape": {"dim": [{"size": "-1"}]}}}, "outputs": {"predictions": {"name": "Identity_2:0", "dtype": "DT_FLOAT", "tensorShape": {"dim": [{"size": "-1"}, {"size": "521"}]}}, "log_mel_spectrogram": {"name": "Identity_1:0", "dtype": "DT_FLOAT", "tensorShape": {"dim": [{"size": "-1"}, {"size": "64"}]}}, "embeddings": {"name": "Identity:0", "dtype": "DT_FLOAT", "tensorShape": {"dim": [{"size": "-1"}, {"size": "1024"}]}}}}, "modelTopology": {"node": [{"name": "StatefulPartitionedCall/yamnet_frames/tf.signal.frame_2/frame/zeros_like", "op": "Const", "attr": {"value": {"tensor": {"dtype": "DT_INT32", "tensorShape": {"dim": [{"size": "2"}]}}}, "dtype": {"type": "DT_INT32"}}}, {"name": "StatefulPartitionedCall/yamnet_frames/tf.signal.frame_2/frame/mul/y", "op": "Const", "attr": {"value": {"tensor": {"dtype": "DT_INT32", "tensorShape": {}}}, "dtype": {"type": "DT_INT32"}}}, {"name": "StatefulPartitionedCall/yamnet_frames/tf.signal.frame_2/frame/concat/axis", "op": "Const", "attr": {"dtype": {"type": "DT_INT32"}, "value": {"tensor": {"dtype": "DT_INT32", "tensorShape": {}}}}}, {"name": "StatefulPartitionedCall/yamnet_frames/tf.signal.frame_2/frame/ones_like", "op": "Const", "attr": {"dtype": {"type": "DT_INT32"}, "value": {"tensor": {"dtype": "DT_INT32", "tensorShape": {"dim": [{"size": "2"}]}}}}}, {"name": "StatefulPartitionedCall/yamnet_frames/tf.signal.frame_2/frame/floordiv_3/y", "op": "Const", "attr": {"value": {"tensor": {"dtype": "DT_INT32", "tensorShape": {}}}, "dtype": {"type": "DT_INT32"}}}, {"name": "StatefulPartitionedCall/yamnet_frames/tf.signal.frame_2/frame/concat_1/values_1/1", "op": "Const", "attr": {"dtype": {"type": "DT_INT32"}, "value": {"tensor": {"dtype": "DT_INT32", "tensorShape": {}}}}}, {"name": "StatefulPartitionedCall/yamnet_frames/tf.signal.frame_2/frame/concat_1/axis", "op": "Const", "attr": {"value": {"tensor": {"dtype": "DT_INT32", "tensorShape": {}}}, "dtype": {"type": "DT_INT32"}}}, {"name": "StatefulPartitionedCall/yamnet_frames/tf.signal.frame_2/frame/range_1/start", "op": "Const", "attr": {"dtype": {"type": "DT_INT32"}, "value": {"tensor": {"dtype": "DT_INT32", "tensorShape": {}}}}}, {"name": "StatefulPartitionedCall/yamnet_frames/tf.signal.frame_2/frame/range_1/delta", "op": "Const", "attr": {"value": {"tensor": {"dtype": "DT_INT32", "tensorShape": {}}}, "dtype": {"type": "DT_INT32"}}}, {"name": "StatefulPartitionedCall/yamnet_frames/tf.signal.frame_2/frame/Reshape_2/shape/1", "op": "Const", "attr": {"value": {"tensor": {"dtype": "DT_INT32", "tensorShape": {}}}, "dtype": {"type": "DT_INT32"}}}, {"name": "StatefulPartitionedCall/yamnet_frames/tf.signal.frame_2/frame/Reshape_3", "op": "Const", "attr": {"dtype": {"type": "DT_INT32"}, "value": {"tensor": {"dtype": "DT_INT32", "tensorShape": {"dim": [{"size": "1"}, {"size": "2"}]}}}}}, {"name": "StatefulPartitionedCall/yamnet_frames/tf.signal.frame_2/frame/strided_slice", "op": "Const", "attr": {"dtype": {"type": "DT_INT32"}, "value": {"tensor": {"dtype": "DT_INT32", "tensorShape": {}}}}}, {"name": "StatefulPartitionedCall/yamnet_frames/tf.signal.frame_2/frame/Maximum/x", "op": "Const", "attr": {"dtype": {"type": "DT_INT32"}, "value": {"tensor": {"dtype": "DT_INT32", "tensorShape": {}}}}}, {"name": "StatefulPartitionedCall/yamnet_frames/tf.signal.frame_2/frame/add/x", "op": "Const", "attr": {"value": {"tensor": {"dtype": "DT_INT32", "tensorShape": {}}}, "dtype": {"type": "DT_INT32"}}}, {"name": "StatefulPartitionedCall/yamnet_frames/tf.signal.frame_2/frame/Reshape/shape_1", "op": "Const", "attr": {"dtype": {"type": "DT_INT32"}, "value": {"tensor": {"dtype": "DT_INT32", "tensorShape": {"dim": [{}]}}}}}, {"name": "StatefulPartitionedCall/yamnet_frames/tf.signal.frame_2/frame/frame_step", "op": "Const", "attr": {"dtype": {"type": "DT_INT32"}, "value": {"tensor": {"dtype": "DT_INT32", "tensorShape": {}}}}}, {"name": "StatefulPartitionedCall/yamnet_frames/tf.signal.frame_2/frame/frame_length", "op": "Const", "attr": {"value": {"tensor": {"dtype": "DT_INT32", "tensorShape": {}}}, "dtype": {"type": "DT_INT32"}}}, {"name": "unknown_7", "op": "Const", "attr": {"dtype": {"type": "DT_FLOAT"}, "value": {"tensor": {"dtype": "DT_FLOAT", "tensorShape": {"dim": [{"size": "512"}, {"size": "257"}]}}}}}, {"name": "StatefulPartitionedCall/yamnet_frames/tf.compat.v1.pad_2/Pad/paddings/0_1", "op": "Const", "attr": {"value": {"tensor": {"dtype": "DT_INT32", "tensorShape": {"dim": [{"size": "2"}]}}}, "dtype": {"type": "DT_INT32"}}}, {"name": "unknown_5", "op": "Const", "attr": {"dtype": {"type": "DT_INT32"}, "value": {"tensor": {"dtype": "DT_INT32", "tensorShape": {}}}}}, {"name": "unknown_4", "op": "Const", "attr": {"dtype": {"type": "DT_INT32"}, "value": {"tensor": {"dtype": "DT_INT32", "tensorShape": {}}}}}, {"name": "StatefulPartitionedCall/yamnet_frames/tf.signal.frame_1/frame/zeros_like", "op": "Const", "attr": {"dtype": {"type": "DT_INT32"}, "value": {"tensor": {"dtype": "DT_INT32", "tensorShape": {"dim": [{"size": "1"}]}}}}}, {"name": "StatefulPartitionedCall/yamnet_frames/tf.signal.frame_1/frame/mul/y", "op": "Const", "attr": {"value": {"tensor": {"dtype": "DT_INT32", "tensorShape": {}}}, "dtype": {"type": "DT_INT32"}}}, {"name": "StatefulPartitionedCall/yamnet_frames/tf.signal.frame_1/frame/concat/axis", "op": "Const", "attr": {"dtype": {"type": "DT_INT32"}, "value": {"tensor": {"dtype": "DT_INT32", "tensorShape": {}}}}}, {"name": "StatefulPartitionedCall/yamnet_frames/tf.signal.frame_1/frame/ones_like", "op": "Const", "attr": {"dtype": {"type": "DT_INT32"}, "value": {"tensor": {"dtype": "DT_INT32", "tensorShape": {"dim": [{"size": "1"}]}}}}}, {"name": "StatefulPartitionedCall/yamnet_frames/tf.signal.frame_1/frame/floordiv_3/y", "op": "Const", "attr": {"dtype": {"type": "DT_INT32"}, "value": {"tensor": {"dtype": "DT_INT32", "tensorShape": {}}}}}, {"name": "StatefulPartitionedCall/yamnet_frames/tf.signal.frame_1/frame/concat_1/values_1/1", "op": "Const", "attr": {"dtype": {"type": "DT_INT32"}, "value": {"tensor": {"dtype": "DT_INT32", "tensorShape": {}}}}}, {"name": "StatefulPartitionedCall/yamnet_frames/tf.signal.frame_1/frame/concat_1/axis", "op": "Const", "attr": {"value": {"tensor": {"dtype": "DT_INT32", "tensorShape": {}}}, "dtype": {"type": "DT_INT32"}}}, {"name": "StatefulPartitionedCall/yamnet_frames/tf.signal.frame_1/frame/range_1/start", "op": "Const", "attr": {"dtype": {"type": "DT_INT32"}, "value": {"tensor": {"dtype": "DT_INT32", "tensorShape": {}}}}}, {"name": "StatefulPartitionedCall/yamnet_frames/tf.signal.frame_1/frame/range_1/delta", "op": "Const", "attr": {"value": {"tensor": {"dtype": "DT_INT32", "tensorShape": {}}}, "dtype": {"type": "DT_INT32"}}}, {"name": "StatefulPartitionedCall/yamnet_frames/tf.signal.frame_1/frame/floordiv_2", "op": "Const", "attr": {"value": {"tensor": {"dtype": "DT_INT32", "tensorShape": {}}}, "dtype": {"type": "DT_INT32"}}}, {"name": "StatefulPartitionedCall/yamnet_frames/tf.signal.frame_1/frame/Reshape_2/shape/1", "op": "Const", "attr": {"dtype": {"type": "DT_INT32"}, "value": {"tensor": {"dtype": "DT_INT32", "tensorShape": {}}}}}, {"name": "StatefulPartitionedCall/yamnet_frames/tf.signal.frame_1/frame/Reshape_3", "op": "Const", "attr": {"dtype": {"type": "DT_INT32"}, "value": {"tensor": {"dtype": "DT_INT32", "tensorShape": {"dim": [{"size": "1"}, {"size": "5"}]}}}}}, {"name": "StatefulPartitionedCall/yamnet_frames/tf.signal.frame_1/frame/strided_slice", "op": "Const", "attr": {"value": {"tensor": {"dtype": "DT_INT32", "tensorShape": {}}}, "dtype": {"type": "DT_INT32"}}}, {"name": "StatefulPartitionedCall/yamnet_frames/tf.signal.frame_1/frame/Maximum/x", "op": "Const", "attr": {"dtype": {"type": "DT_INT32"}, "value": {"tensor": {"dtype": "DT_INT32", "tensorShape": {}}}}}, {"name": "StatefulPartitionedCall/yamnet_frames/tf.signal.frame_1/frame/add/x", "op": "Const", "attr": {"dtype": {"type": "DT_INT32"}, "value": {"tensor": {"dtype": "DT_INT32", "tensorShape": {}}}}}, {"name": "StatefulPartitionedCall/yamnet_frames/tf.signal.frame_1/frame/Reshape/shape_1", "op": "Const", "attr": {"value": {"tensor": {"dtype": "DT_INT32", "tensorShape": {"dim": [{}]}}}, "dtype": {"type": "DT_INT32"}}}, {"name": "StatefulPartitionedCall/yamnet_frames/tf.signal.frame_1/frame/frame_step", "op": "Const", "attr": {"value": {"tensor": {"dtype": "DT_INT32", "tensorShape": {}}}, "dtype": {"type": "DT_INT32"}}}, {"name": "StatefulPartitionedCall/yamnet_frames/tf.signal.frame_1/frame/frame_length", "op": "Const", "attr": {"value": {"tensor": {"dtype": "DT_INT32", "tensorShape": {}}}, "dtype": {"type": "DT_INT32"}}}, {"name": "StatefulPartitionedCall/yamnet_frames/tf.compat.v1.pad_1/Pad/paddings/0/0", "op": "Const", "attr": {"value": {"tensor": {"dtype": "DT_INT32", "tensorShape": {}}}, "dtype": {"type": "DT_INT32"}}}, {"name": "unknown_2", "op": "Const", "attr": {"dtype": {"type": "DT_INT32"}, "value": {"tensor": {"dtype": "DT_INT32", "tensorShape": {}}}}}, {"name": "unknown_1", "op": "Const", "attr": {"dtype": {"type": "DT_INT32"}, "value": {"tensor": {"dtype": "DT_INT32", "tensorShape": {}}}}}, {"name": "ConstantFolding/StatefulPartitionedCall/yamnet_frames/tf.math.truediv_1/truediv_recip", "op": "Const", "attr": {"dtype": {"type": "DT_FLOAT"}, "value": {"tensor": {"dtype": "DT_FLOAT", "tensorShape": {}}}}}, {"name": "StatefulPartitionedCall/yamnet_frames/tf.__operators__.getitem_1/strided_slice/stack", "op": "Const", "attr": {"value": {"tensor": {"dtype": "DT_INT32", "tensorShape": {"dim": [{"size": "1"}]}}}, "dtype": {"type": "DT_INT32"}}}, {"name": "StatefulPartitionedCall/yamnet_frames/tf.__operators__.getitem_1/strided_slice/stack_1", "op": "Const", "attr": {"dtype": {"type": "DT_INT32"}, "value": {"tensor": {"dtype": "DT_INT32", "tensorShape": {"dim": [{"size": "1"}]}}}}}, {"name": "StatefulPartitionedCall/yamnet_frames/tf.__operators__.getitem_1/strided_slice/stack_2", "op": "Const", "attr": {"value": {"tensor": {"dtype": "DT_INT32", "tensorShape": {"dim": [{"size": "1"}]}}}, "dtype": {"type": "DT_INT32"}}}, {"name": "unknown", "op": "Const", "attr": {"value": {"tensor": {"dtype": "DT_INT32", "tensorShape": {}}}, "dtype": {"type": "DT_INT32"}}}, {"name": "StatefulPartitionedCall/yamnet_frames/tf.signal.frame_1/frame/packed", "op": "Const", "attr": {"dtype": {"type": "DT_INT32"}, "value": {"tensor": {"dtype": "DT_INT32", "tensorShape": {"dim": [{"size": "3"}]}}}}}, {"name": "StatefulPartitionedCall/yamnet_frames/tf.signal.frame_1/frame/split/split_dim", "op": "Const", "attr": {"value": {"tensor": {"dtype": "DT_INT32", "tensorShape": {}}}, "dtype": {"type": "DT_INT32"}}}, {"name": "StatefulPartitionedCall/yamnet_frames/tf.signal.frame_1/frame/concat_2/axis", "op": "Const", "attr": {"value": {"tensor": {"dtype": "DT_INT32", "tensorShape": {}}}, "dtype": {"type": "DT_INT32"}}}, {"name": "unknown_3", "op": "Const", "attr": {"dtype": {"type": "DT_FLOAT"}, "value": {"tensor": {"dtype": "DT_FLOAT", "tensorShape": {"dim": [{"size": "1"}, {"size": "400"}]}}}}}, {"name": "StatefulPartitionedCall/yamnet_frames/tf.__operators__.getitem_2/strided_slice/stack", "op": "Const", "attr": {"dtype": {"type": "DT_INT32"}, "value": {"tensor": {"dtype": "DT_INT32", "tensorShape": {"dim": [{"size": "1"}]}}}}}, {"name": "StatefulPartitionedCall/yamnet_frames/tf.__operators__.getitem_2/strided_slice/stack_1", "op": "Const", "attr": {"value": {"tensor": {"dtype": "DT_INT32", "tensorShape": {"dim": [{"size": "1"}]}}}, "dtype": {"type": "DT_INT32"}}}, {"name": "StatefulPartitionedCall/yamnet_frames/tf.__operators__.getitem_2/strided_slice/stack_2", "op": "Const", "attr": {"value": {"tensor": {"dtype": "DT_INT32", "tensorShape": {"dim": [{"size": "1"}]}}}, "dtype": {"type": "DT_INT32"}}}, {"name": "StatefulPartitionedCall/yamnet_frames/tf.compat.v1.floor_div/FloorDiv/y", "op": "Const", "attr": {"value": {"tensor": {"dtype": "DT_INT32", "tensorShape": {}}}, "dtype": {"type": "DT_INT32"}}}, {"name": "unknown_6", "op": "Const", "attr": {"dtype": {"type": "DT_FLOAT"}, "value": {"tensor": {"dtype": "DT_FLOAT", "tensorShape": {"dim": [{"size": "512"}, {"size": "257"}]}}}}}, {"name": "unknown_8", "op": "Const", "attr": {"dtype": {"type": "DT_FLOAT"}, "value": {"tensor": {"dtype": "DT_FLOAT", "tensorShape": {"dim": [{"size": "257"}, {"size": "64"}]}}}}}, {"name": "StatefulPartitionedCall/yamnet_frames/tf.__operators__.add_3/y", "op": "Const", "attr": {"value": {"tensor": {"dtype": "DT_FLOAT", "tensorShape": {}}}, "dtype": {"type": "DT_FLOAT"}}}, {"name": "StatefulPartitionedCall/yamnet_frames/tf.signal.frame_2/frame/packed", "op": "Const", "attr": {"value": {"tensor": {"dtype": "DT_INT32", "tensorShape": {"dim": [{"size": "3"}]}}}, "dtype": {"type": "DT_INT32"}}}, {"name": "StatefulPartitionedCall/yamnet_frames/tf.signal.frame_2/frame/split/split_dim", "op": "Const", "attr": {"dtype": {"type": "DT_INT32"}, "value": {"tensor": {"dtype": "DT_INT32", "tensorShape": {}}}}}, {"name": "StatefulPartitionedCall/yamnet_frames/tf.signal.frame_2/frame/concat_2/axis", "op": "Const", "attr": {"dtype": {"type": "DT_INT32"}, "value": {"tensor": {"dtype": "DT_INT32", "tensorShape": {}}}}}, {"name": "StatefulPartitionedCall/yamnet_frames/reshape_1/strided_slice/stack", "op": "Const", "attr": {"value": {"tensor": {"dtype": "DT_INT32", "tensorShape": {"dim": [{"size": "1"}]}}}, "dtype": {"type": "DT_INT32"}}}, {"name": "StatefulPartitionedCall/yamnet_frames/reshape_1/strided_slice/stack_1", "op": "Const", "attr": {"value": {"tensor": {"dtype": "DT_INT32", "tensorShape": {"dim": [{"size": "1"}]}}}, "dtype": {"type": "DT_INT32"}}}, {"name": "StatefulPartitionedCall/yamnet_frames/reshape_1/strided_slice/stack_2", "op": "Const", "attr": {"dtype": {"type": "DT_INT32"}, "value": {"tensor": {"dtype": "DT_INT32", "tensorShape": {"dim": [{"size": "1"}]}}}}}, {"name": "StatefulPartitionedCall/yamnet_frames/reshape_1/Reshape/shape/1", "op": "Const", "attr": {"dtype": {"type": "DT_INT32"}, "value": {"tensor": {"dtype": "DT_INT32", "tensorShape": {}}}}}, {"name": "StatefulPartitionedCall/yamnet_frames/reshape_1/Reshape/shape/2", "op": "Const", "attr": {"dtype": {"type": "DT_INT32"}, "value": {"tensor": {"dtype": "DT_INT32", "tensorShape": {}}}}}, {"name": "StatefulPartitionedCall/yamnet_frames/reshape_1/Reshape/shape/3", "op": "Const", "attr": {"dtype": {"type": "DT_INT32"}, "value": {"tensor": {"dtype": "DT_INT32", "tensorShape": {}}}}}, {"name": "StatefulPartitionedCall/yamnet_frames/global_average_pooling2d_1/Mean/reduction_indices", "op": "Const", "attr": {"dtype": {"type": "DT_INT32"}, "value": {"tensor": {"dtype": "DT_INT32", "tensorShape": {"dim": [{"size": "2"}]}}}}}, {"name": "StatefulPartitionedCall/yamnet_frames/dense_1/MatMul/ReadVariableOp", "op": "Const", "attr": {"value": {"tensor": {"dtype": "DT_FLOAT", "tensorShape": {"dim": [{"size": "1024"}, {"size": "521"}]}}}, "dtype": {"type": "DT_FLOAT"}}}, {"name": "StatefulPartitionedCall/yamnet_frames/dense_1/BiasAdd/ReadVariableOp", "op": "Const", "attr": {"dtype": {"type": "DT_FLOAT"}, "value": {"tensor": {"dtype": "DT_FLOAT", "tensorShape": {"dim": [{"size": "521"}]}}}}}, {"name": "waveform", "op": "Placeholder", "attr": {"dtype": {"type": "DT_FLOAT"}, "shape": {"shape": {"dim": [{"size": "-1"}]}}}}, {"name": "StatefulPartitionedCall/yamnet_frames/layer1/conv/Conv2D_weights", "op": "Const", "attr": {"dtype": {"type": "DT_FLOAT"}, "value": {"tensor": {"dtype": "DT_FLOAT", "tensorShape": {"dim": [{"size": "3"}, {"size": "3"}, {"size": "1"}, {"size": "32"}]}}}}}, {"name": "StatefulPartitionedCall/yamnet_frames/layer12/pointwise_conv/Conv2D_bn_offset", "op": "Const", "attr": {"dtype": {"type": "DT_FLOAT"}, "value": {"tensor": {"dtype": "DT_FLOAT", "tensorShape": {"dim": [{"size": "512"}]}}}}}, {"name": "StatefulPartitionedCall/yamnet_frames/layer1/conv/Conv2D_bn_offset", "op": "Const", "attr": {"dtype": {"type": "DT_FLOAT"}, "value": {"tensor": {"dtype": "DT_FLOAT", "tensorShape": {"dim": [{"size": "32"}]}}}}}, {"name": "StatefulPartitionedCall/yamnet_frames/layer2/depthwise_conv/depthwise_weights", "op": "Const", "attr": {"dtype": {"type": "DT_FLOAT"}, "value": {"tensor": {"dtype": "DT_FLOAT", "tensorShape": {"dim": [{"size": "3"}, {"size": "3"}, {"size": "32"}, {"size": "1"}]}}}}}, {"name": "StatefulPartitionedCall/yamnet_frames/layer2/depthwise_conv/depthwise_bn_offset", "op": "Const", "attr": {"dtype": {"type": "DT_FLOAT"}, "value": {"tensor": {"dtype": "DT_FLOAT", "tensorShape": {"dim": [{"size": "32"}]}}}}}, {"name": "StatefulPartitionedCall/yamnet_frames/layer2/pointwise_conv/Conv2D_weights", "op": "Const", "attr": {"dtype": {"type": "DT_FLOAT"}, "value": {"tensor": {"dtype": "DT_FLOAT", "tensorShape": {"dim": [{"size": "1"}, {"size": "1"}, {"size": "32"}, {"size": "64"}]}}}}}, {"name": "StatefulPartitionedCall/yamnet_frames/layer2/pointwise_conv/Conv2D_bn_offset", "op": "Const", "attr": {"dtype": {"type": "DT_FLOAT"}, "value": {"tensor": {"dtype": "DT_FLOAT", "tensorShape": {"dim": [{"size": "64"}]}}}}}, {"name": "StatefulPartitionedCall/yamnet_frames/layer13/depthwise_conv/depthwise_weights", "op": "Const", "attr": {"value": {"tensor": {"dtype": "DT_FLOAT", "tensorShape": {"dim": [{"size": "3"}, {"size": "3"}, {"size": "512"}, {"size": "1"}]}}}, "dtype": {"type": "DT_FLOAT"}}}, {"name": "StatefulPartitionedCall/yamnet_frames/layer3/depthwise_conv/depthwise_weights", "op": "Const", "attr": {"value": {"tensor": {"dtype": "DT_FLOAT", "tensorShape": {"dim": [{"size": "3"}, {"size": "3"}, {"size": "64"}, {"size": "1"}]}}}, "dtype": {"type": "DT_FLOAT"}}}, {"name": "StatefulPartitionedCall/yamnet_frames/layer3/depthwise_conv/depthwise_bn_offset", "op": "Const", "attr": {"value": {"tensor": {"dtype": "DT_FLOAT", "tensorShape": {"dim": [{"size": "64"}]}}}, "dtype": {"type": "DT_FLOAT"}}}, {"name": "StatefulPartitionedCall/yamnet_frames/layer3/pointwise_conv/Conv2D_weights", "op": "Const", "attr": {"value": {"tensor": {"dtype": "DT_FLOAT", "tensorShape": {"dim": [{"size": "1"}, {"size": "1"}, {"size": "64"}, {"size": "128"}]}}}, "dtype": {"type": "DT_FLOAT"}}}, {"name": "StatefulPartitionedCall/yamnet_frames/layer3/pointwise_conv/Conv2D_bn_offset", "op": "Const", "attr": {"value": {"tensor": {"dtype": "DT_FLOAT", "tensorShape": {"dim": [{"size": "128"}]}}}, "dtype": {"type": "DT_FLOAT"}}}, {"name": "StatefulPartitionedCall/yamnet_frames/layer13/depthwise_conv/depthwise_bn_offset", "op": "Const", "attr": {"dtype": {"type": "DT_FLOAT"}, "value": {"tensor": {"dtype": "DT_FLOAT", "tensorShape": {"dim": [{"size": "512"}]}}}}}, {"name": "StatefulPartitionedCall/yamnet_frames/layer4/depthwise_conv/depthwise_weights", "op": "Const", "attr": {"dtype": {"type": "DT_FLOAT"}, "value": {"tensor": {"dtype": "DT_FLOAT", "tensorShape": {"dim": [{"size": "3"}, {"size": "3"}, {"size": "128"}, {"size": "1"}]}}}}}, {"name": "StatefulPartitionedCall/yamnet_frames/layer4/depthwise_conv/depthwise_bn_offset", "op": "Const", "attr": {"dtype": {"type": "DT_FLOAT"}, "value": {"tensor": {"dtype": "DT_FLOAT", "tensorShape": {"dim": [{"size": "128"}]}}}}}, {"name": "StatefulPartitionedCall/yamnet_frames/layer4/pointwise_conv/Conv2D_weights", "op": "Const", "attr": {"value": {"tensor": {"dtype": "DT_FLOAT", "tensorShape": {"dim": [{"size": "1"}, {"size": "1"}, {"size": "128"}, {"size": "128"}]}}}, "dtype": {"type": "DT_FLOAT"}}}, {"name": "StatefulPartitionedCall/yamnet_frames/layer4/pointwise_conv/Conv2D_bn_offset", "op": "Const", "attr": {"value": {"tensor": {"dtype": "DT_FLOAT", "tensorShape": {"dim": [{"size": "128"}]}}}, "dtype": {"type": "DT_FLOAT"}}}, {"name": "StatefulPartitionedCall/yamnet_frames/layer5/depthwise_conv/depthwise_weights", "op": "Const", "attr": {"dtype": {"type": "DT_FLOAT"}, "value": {"tensor": {"dtype": "DT_FLOAT", "tensorShape": {"dim": [{"size": "3"}, {"size": "3"}, {"size": "128"}, {"size": "1"}]}}}}}, {"name": "StatefulPartitionedCall/yamnet_frames/layer5/depthwise_conv/depthwise_bn_offset", "op": "Const", "attr": {"value": {"tensor": {"dtype": "DT_FLOAT", "tensorShape": {"dim": [{"size": "128"}]}}}, "dtype": {"type": "DT_FLOAT"}}}, {"name": "StatefulPartitionedCall/yamnet_frames/layer5/pointwise_conv/Conv2D_weights", "op": "Const", "attr": {"dtype": {"type": "DT_FLOAT"}, "value": {"tensor": {"dtype": "DT_FLOAT", "tensorShape": {"dim": [{"size": "1"}, {"size": "1"}, {"size": "128"}, {"size": "256"}]}}}}}, {"name": "StatefulPartitionedCall/yamnet_frames/layer13/pointwise_conv/Conv2D_weights", "op": "Const", "attr": {"dtype": {"type": "DT_FLOAT"}, "value": {"tensor": {"dtype": "DT_FLOAT", "tensorShape": {"dim": [{"size": "1"}, {"size": "1"}, {"size": "512"}, {"size": "1024"}]}}}}}, {"name": "StatefulPartitionedCall/yamnet_frames/layer5/pointwise_conv/Conv2D_bn_offset", "op": "Const", "attr": {"value": {"tensor": {"dtype": "DT_FLOAT", "tensorShape": {"dim": [{"size": "256"}]}}}, "dtype": {"type": "DT_FLOAT"}}}, {"name": "StatefulPartitionedCall/yamnet_frames/layer6/depthwise_conv/depthwise_weights", "op": "Const", "attr": {"value": {"tensor": {"dtype": "DT_FLOAT", "tensorShape": {"dim": [{"size": "3"}, {"size": "3"}, {"size": "256"}, {"size": "1"}]}}}, "dtype": {"type": "DT_FLOAT"}}}, {"name": "StatefulPartitionedCall/yamnet_frames/layer6/depthwise_conv/depthwise_bn_offset", "op": "Const", "attr": {"value": {"tensor": {"dtype": "DT_FLOAT", "tensorShape": {"dim": [{"size": "256"}]}}}, "dtype": {"type": "DT_FLOAT"}}}, {"name": "StatefulPartitionedCall/yamnet_frames/layer6/pointwise_conv/Conv2D_weights", "op": "Const", "attr": {"dtype": {"type": "DT_FLOAT"}, "value": {"tensor": {"dtype": "DT_FLOAT", "tensorShape": {"dim": [{"size": "1"}, {"size": "1"}, {"size": "256"}, {"size": "256"}]}}}}}, {"name": "StatefulPartitionedCall/yamnet_frames/layer13/pointwise_conv/Conv2D_bn_offset", "op": "Const", "attr": {"dtype": {"type": "DT_FLOAT"}, "value": {"tensor": {"dtype": "DT_FLOAT", "tensorShape": {"dim": [{"size": "1024"}]}}}}}, {"name": "StatefulPartitionedCall/yamnet_frames/layer6/pointwise_conv/Conv2D_bn_offset", "op": "Const", "attr": {"dtype": {"type": "DT_FLOAT"}, "value": {"tensor": {"dtype": "DT_FLOAT", "tensorShape": {"dim": [{"size": "256"}]}}}}}, {"name": "StatefulPartitionedCall/yamnet_frames/layer7/depthwise_conv/depthwise_weights", "op": "Const", "attr": {"value": {"tensor": {"dtype": "DT_FLOAT", "tensorShape": {"dim": [{"size": "3"}, {"size": "3"}, {"size": "256"}, {"size": "1"}]}}}, "dtype": {"type": "DT_FLOAT"}}}, {"name": "StatefulPartitionedCall/yamnet_frames/layer7/depthwise_conv/depthwise_bn_offset", "op": "Const", "attr": {"value": {"tensor": {"dtype": "DT_FLOAT", "tensorShape": {"dim": [{"size": "256"}]}}}, "dtype": {"type": "DT_FLOAT"}}}, {"name": "StatefulPartitionedCall/yamnet_frames/layer7/pointwise_conv/Conv2D_weights", "op": "Const", "attr": {"dtype": {"type": "DT_FLOAT"}, "value": {"tensor": {"dtype": "DT_FLOAT", "tensorShape": {"dim": [{"size": "1"}, {"size": "1"}, {"size": "256"}, {"size": "512"}]}}}}}, {"name": "StatefulPartitionedCall/yamnet_frames/layer7/pointwise_conv/Conv2D_bn_offset", "op": "Const", "attr": {"value": {"tensor": {"dtype": "DT_FLOAT", "tensorShape": {"dim": [{"size": "512"}]}}}, "dtype": {"type": "DT_FLOAT"}}}, {"name": "StatefulPartitionedCall/yamnet_frames/layer14/depthwise_conv/depthwise_weights", "op": "Const", "attr": {"value": {"tensor": {"dtype": "DT_FLOAT", "tensorShape": {"dim": [{"size": "3"}, {"size": "3"}, {"size": "1024"}, {"size": "1"}]}}}, "dtype": {"type": "DT_FLOAT"}}}, {"name": "StatefulPartitionedCall/yamnet_frames/layer8/depthwise_conv/depthwise_weights", "op": "Const", "attr": {"dtype": {"type": "DT_FLOAT"}, "value": {"tensor": {"dtype": "DT_FLOAT", "tensorShape": {"dim": [{"size": "3"}, {"size": "3"}, {"size": "512"}, {"size": "1"}]}}}}}, {"name": "StatefulPartitionedCall/yamnet_frames/layer8/depthwise_conv/depthwise_bn_offset", "op": "Const", "attr": {"value": {"tensor": {"dtype": "DT_FLOAT", "tensorShape": {"dim": [{"size": "512"}]}}}, "dtype": {"type": "DT_FLOAT"}}}, {"name": "StatefulPartitionedCall/yamnet_frames/layer8/pointwise_conv/Conv2D_weights", "op": "Const", "attr": {"dtype": {"type": "DT_FLOAT"}, "value": {"tensor": {"dtype": "DT_FLOAT", "tensorShape": {"dim": [{"size": "1"}, {"size": "1"}, {"size": "512"}, {"size": "512"}]}}}}}, {"name": "StatefulPartitionedCall/yamnet_frames/layer8/pointwise_conv/Conv2D_bn_offset", "op": "Const", "attr": {"dtype": {"type": "DT_FLOAT"}, "value": {"tensor": {"dtype": "DT_FLOAT", "tensorShape": {"dim": [{"size": "512"}]}}}}}, {"name": "StatefulPartitionedCall/yamnet_frames/layer14/depthwise_conv/depthwise_bn_offset", "op": "Const", "attr": {"value": {"tensor": {"dtype": "DT_FLOAT", "tensorShape": {"dim": [{"size": "1024"}]}}}, "dtype": {"type": "DT_FLOAT"}}}, {"name": "StatefulPartitionedCall/yamnet_frames/layer9/depthwise_conv/depthwise_weights", "op": "Const", "attr": {"dtype": {"type": "DT_FLOAT"}, "value": {"tensor": {"dtype": "DT_FLOAT", "tensorShape": {"dim": [{"size": "3"}, {"size": "3"}, {"size": "512"}, {"size": "1"}]}}}}}, {"name": "StatefulPartitionedCall/yamnet_frames/layer9/depthwise_conv/depthwise_bn_offset", "op": "Const", "attr": {"dtype": {"type": "DT_FLOAT"}, "value": {"tensor": {"dtype": "DT_FLOAT", "tensorShape": {"dim": [{"size": "512"}]}}}}}, {"name": "StatefulPartitionedCall/yamnet_frames/layer9/pointwise_conv/Conv2D_weights", "op": "Const", "attr": {"dtype": {"type": "DT_FLOAT"}, "value": {"tensor": {"dtype": "DT_FLOAT", "tensorShape": {"dim": [{"size": "1"}, {"size": "1"}, {"size": "512"}, {"size": "512"}]}}}}}, {"name": "StatefulPartitionedCall/yamnet_frames/layer9/pointwise_conv/Conv2D_bn_offset", "op": "Const", "attr": {"dtype": {"type": "DT_FLOAT"}, "value": {"tensor": {"dtype": "DT_FLOAT", "tensorShape": {"dim": [{"size": "512"}]}}}}}, {"name": "StatefulPartitionedCall/yamnet_frames/layer10/depthwise_conv/depthwise_weights", "op": "Const", "attr": {"dtype": {"type": "DT_FLOAT"}, "value": {"tensor": {"dtype": "DT_FLOAT", "tensorShape": {"dim": [{"size": "3"}, {"size": "3"}, {"size": "512"}, {"size": "1"}]}}}}}, {"name": "StatefulPartitionedCall/yamnet_frames/layer10/depthwise_conv/depthwise_bn_offset", "op": "Const", "attr": {"dtype": {"type": "DT_FLOAT"}, "value": {"tensor": {"dtype": "DT_FLOAT", "tensorShape": {"dim": [{"size": "512"}]}}}}}, {"name": "StatefulPartitionedCall/yamnet_frames/layer10/pointwise_conv/Conv2D_weights", "op": "Const", "attr": {"value": {"tensor": {"dtype": "DT_FLOAT", "tensorShape": {"dim": [{"size": "1"}, {"size": "1"}, {"size": "512"}, {"size": "512"}]}}}, "dtype": {"type": "DT_FLOAT"}}}, {"name": "StatefulPartitionedCall/yamnet_frames/layer14/pointwise_conv/Conv2D_weights", "op": "Const", "attr": {"dtype": {"type": "DT_FLOAT"}, "value": {"tensor": {"dtype": "DT_FLOAT", "tensorShape": {"dim": [{"size": "1"}, {"size": "1"}, {"size": "1024"}, {"size": "1024"}]}}}}}, {"name": "StatefulPartitionedCall/yamnet_frames/layer10/pointwise_conv/Conv2D_bn_offset", "op": "Const", "attr": {"value": {"tensor": {"dtype": "DT_FLOAT", "tensorShape": {"dim": [{"size": "512"}]}}}, "dtype": {"type": "DT_FLOAT"}}}, {"name": "StatefulPartitionedCall/yamnet_frames/layer11/depthwise_conv/depthwise_weights", "op": "Const", "attr": {"dtype": {"type": "DT_FLOAT"}, "value": {"tensor": {"dtype": "DT_FLOAT", "tensorShape": {"dim": [{"size": "3"}, {"size": "3"}, {"size": "512"}, {"size": "1"}]}}}}}, {"name": "StatefulPartitionedCall/yamnet_frames/layer11/depthwise_conv/depthwise_bn_offset", "op": "Const", "attr": {"value": {"tensor": {"dtype": "DT_FLOAT", "tensorShape": {"dim": [{"size": "512"}]}}}, "dtype": {"type": "DT_FLOAT"}}}, {"name": "StatefulPartitionedCall/yamnet_frames/layer11/pointwise_conv/Conv2D_weights", "op": "Const", "attr": {"dtype": {"type": "DT_FLOAT"}, "value": {"tensor": {"dtype": "DT_FLOAT", "tensorShape": {"dim": [{"size": "1"}, {"size": "1"}, {"size": "512"}, {"size": "512"}]}}}}}, {"name": "StatefulPartitionedCall/yamnet_frames/layer14/pointwise_conv/Conv2D_bn_offset", "op": "Const", "attr": {"value": {"tensor": {"dtype": "DT_FLOAT", "tensorShape": {"dim": [{"size": "1024"}]}}}, "dtype": {"type": "DT_FLOAT"}}}, {"name": "StatefulPartitionedCall/yamnet_frames/layer11/pointwise_conv/Conv2D_bn_offset", "op": "Const", "attr": {"dtype": {"type": "DT_FLOAT"}, "value": {"tensor": {"dtype": "DT_FLOAT", "tensorShape": {"dim": [{"size": "512"}]}}}}}, {"name": "StatefulPartitionedCall/yamnet_frames/layer12/depthwise_conv/depthwise_weights", "op": "Const", "attr": {"value": {"tensor": {"dtype": "DT_FLOAT", "tensorShape": {"dim": [{"size": "3"}, {"size": "3"}, {"size": "512"}, {"size": "1"}]}}}, "dtype": {"type": "DT_FLOAT"}}}, {"name": "StatefulPartitionedCall/yamnet_frames/layer12/depthwise_conv/depthwise_bn_offset", "op": "Const", "attr": {"dtype": {"type": "DT_FLOAT"}, "value": {"tensor": {"dtype": "DT_FLOAT", "tensorShape": {"dim": [{"size": "512"}]}}}}}, {"name": "StatefulPartitionedCall/yamnet_frames/layer12/pointwise_conv/Conv2D_weights", "op": "Const", "attr": {"value": {"tensor": {"dtype": "DT_FLOAT", "tensorShape": {"dim": [{"size": "1"}, {"size": "1"}, {"size": "512"}, {"size": "512"}]}}}, "dtype": {"type": "DT_FLOAT"}}}, {"name": "StatefulPartitionedCall/yamnet_frames/tf.compat.v1.shape_1/Shape", "op": "Shape", "input": ["waveform"], "attr": {"out_type": {"type": "DT_INT32"}, "T": {"type": "DT_FLOAT"}}}, {"name": "StatefulPartitionedCall/yamnet_frames/tf.__operators__.getitem_1/strided_slice", "op": "StridedSlice", "input": ["StatefulPartitionedCall/yamnet_frames/tf.compat.v1.shape_1/Shape", "StatefulPartitionedCall/yamnet_frames/tf.__operators__.getitem_1/strided_slice/stack", "StatefulPartitionedCall/yamnet_frames/tf.__operators__.getitem_1/strided_slice/stack_1", "StatefulPartitionedCall/yamnet_frames/tf.__operators__.getitem_1/strided_slice/stack_2"], "attr": {"ellipsis_mask": {"i": "0"}, "new_axis_mask": {"i": "0"}, "end_mask": {"i": "0"}, "shrink_axis_mask": {"i": "1"}, "T": {"type": "DT_INT32"}, "Index": {"type": "DT_INT32"}, "begin_mask": {"i": "0"}}}, {"name": "StatefulPartitionedCall/yamnet_frames/tf.math.subtract_3/Sub", "op": "Sub", "input": ["unknown", "StatefulPartitionedCall/yamnet_frames/tf.__operators__.getitem_1/strided_slice"], "attr": {"T": {"type": "DT_INT32"}}}, {"name": "StatefulPartitionedCall/yamnet_frames/tf.math.maximum_3/Maximum", "op": "Maximum", "input": ["StatefulPartitionedCall/yamnet_frames/tf.__operators__.getitem_1/strided_slice", "unknown"], "attr": {"T": {"type": "DT_INT32"}}}, {"name": "StatefulPartitionedCall/yamnet_frames/tf.math.maximum_2/Maximum", "op": "Maximum", "input": ["unknown_2", "StatefulPartitionedCall/yamnet_frames/tf.math.subtract_3/Sub"], "attr": {"T": {"type": "DT_INT32"}}}, {"name": "StatefulPartitionedCall/yamnet_frames/tf.math.subtract_4/Sub", "op": "Sub", "input": ["StatefulPartitionedCall/yamnet_frames/tf.math.maximum_3/Maximum", "unknown"], "attr": {"T": {"type": "DT_INT32"}}}, {"name": "StatefulPartitionedCall/yamnet_frames/tf.cast_2/Cast", "op": "Cast", "input": ["StatefulPartitionedCall/yamnet_frames/tf.math.subtract_4/Sub"], "attr": {"DstT": {"type": "DT_FLOAT"}, "SrcT": {"type": "DT_INT32"}, "Truncate": {"b": false}}}, {"name": "StatefulPartitionedCall/yamnet_frames/tf.math.truediv_1/truediv", "op": "Mul", "input": ["StatefulPartitionedCall/yamnet_frames/tf.cast_2/Cast", "ConstantFolding/StatefulPartitionedCall/yamnet_frames/tf.math.truediv_1/truediv_recip"], "attr": {"T": {"type": "DT_FLOAT"}}}, {"name": "StatefulPartitionedCall/yamnet_frames/tf.math.ceil_1/Ceil", "op": "Ceil", "input": ["StatefulPartitionedCall/yamnet_frames/tf.math.truediv_1/truediv"], "attr": {"T": {"type": "DT_FLOAT"}}}, {"name": "StatefulPartitionedCall/yamnet_frames/tf.cast_3/Cast", "op": "Cast", "input": ["StatefulPartitionedCall/yamnet_frames/tf.math.ceil_1/Ceil"], "attr": {"Truncate": {"b": false}, "SrcT": {"type": "DT_FLOAT"}, "DstT": {"type": "DT_INT32"}}}, {"name": "StatefulPartitionedCall/yamnet_frames/tf.math.multiply_1/Mul", "op": "Mul", "input": ["unknown_1", "StatefulPartitionedCall/yamnet_frames/tf.cast_3/Cast"], "attr": {"T": {"type": "DT_INT32"}}}, {"name": "StatefulPartitionedCall/yamnet_frames/tf.math.subtract_5/Sub", "op": "Sub", "input": ["StatefulPartitionedCall/yamnet_frames/tf.math.multiply_1/Mul", "StatefulPartitionedCall/yamnet_frames/tf.math.subtract_4/Sub"], "attr": {"T": {"type": "DT_INT32"}}}, {"name": "StatefulPartitionedCall/yamnet_frames/tf.__operators__.add_2/AddV2", "op": "AddV2", "input": ["StatefulPartitionedCall/yamnet_frames/tf.math.maximum_2/Maximum", "StatefulPartitionedCall/yamnet_frames/tf.math.subtract_5/Sub"], "attr": {"T": {"type": "DT_INT32"}}}, {"name": "StatefulPartitionedCall/yamnet_frames/tf.compat.v1.pad_1/Pad/paddings/0", "op": "Pack", "input": ["StatefulPartitionedCall/yamnet_frames/tf.compat.v1.pad_1/Pad/paddings/0/0", "StatefulPartitionedCall/yamnet_frames/tf.__operators__.add_2/AddV2"], "attr": {"N": {"i": "2"}, "T": {"type": "DT_INT32"}, "axis": {"i": "0"}}}, {"name": "ConstantFolding/StatefulPartitionedCall/yamnet_frames/tf.compat.v1.pad_1/Pad/paddings_const_axis", "op": "Const", "input": ["^StatefulPartitionedCall/yamnet_frames/tf.compat.v1.pad_1/Pad/paddings/0"], "attr": {"value": {"tensor": {"dtype": "DT_INT32", "tensorShape": {}}}, "dtype": {"type": "DT_INT32"}}}, {"name": "StatefulPartitionedCall/yamnet_frames/tf.compat.v1.pad_1/Pad/paddings", "op": "ExpandDims", "input": ["StatefulPartitionedCall/yamnet_frames/tf.compat.v1.pad_1/Pad/paddings/0", "ConstantFolding/StatefulPartitionedCall/yamnet_frames/tf.compat.v1.pad_1/Pad/paddings_const_axis"], "attr": {"Tdim": {"type": "DT_INT32"}, "T": {"type": "DT_INT32"}}}, {"name": "StatefulPartitionedCall/yamnet_frames/tf.compat.v1.pad_1/Pad", "op": "Pad", "input": ["waveform", "StatefulPartitionedCall/yamnet_frames/tf.compat.v1.pad_1/Pad/paddings"], "attr": {"Tpaddings": {"type": "DT_INT32"}, "T": {"type": "DT_FLOAT"}}}, {"name": "StatefulPartitionedCall/yamnet_frames/tf.signal.frame_1/frame/Shape", "op": "Shape", "input": ["StatefulPartitionedCall/yamnet_frames/tf.compat.v1.pad_1/Pad"], "attr": {"out_type": {"type": "DT_INT32"}, "T": {"type": "DT_FLOAT"}}}, {"name": "StatefulPartitionedCall/yamnet_frames/tf.signal.frame_1/frame/split", "op": "SplitV", "input": ["StatefulPartitionedCall/yamnet_frames/tf.signal.frame_1/frame/Shape", "StatefulPartitionedCall/yamnet_frames/tf.signal.frame_1/frame/packed", "StatefulPartitionedCall/yamnet_frames/tf.signal.frame_1/frame/split/split_dim"], "attr": {"T": {"type": "DT_INT32"}, "Tlen": {"type": "DT_INT32"}, "num_split": {"i": "3"}}}, {"name": "StatefulPartitionedCall/yamnet_frames/tf.signal.frame_1/frame/Reshape", "op": "Reshape", "input": ["StatefulPartitionedCall/yamnet_frames/tf.signal.frame_1/frame/split:1", "StatefulPartitionedCall/yamnet_frames/tf.signal.frame_1/frame/Reshape/shape_1"], "attr": {"Tshape": {"type": "DT_INT32"}, "T": {"type": "DT_INT32"}}}, {"name": "StatefulPartitionedCall/yamnet_frames/tf.signal.frame_1/frame/floordiv_3", "op": "FloorDiv", "input": ["StatefulPartitionedCall/yamnet_frames/tf.signal.frame_1/frame/Reshape", "StatefulPartitionedCall/yamnet_frames/tf.signal.frame_1/frame/floordiv_3/y"], "attr": {"T": {"type": "DT_INT32"}}}, {"name": "StatefulPartitionedCall/yamnet_frames/tf.signal.frame_1/frame/sub_2", "op": "Sub", "input": ["StatefulPartitionedCall/yamnet_frames/tf.signal.frame_1/frame/Reshape", "StatefulPartitionedCall/yamnet_frames/tf.signal.frame_1/frame/frame_length"], "attr": {"T": {"type": "DT_INT32"}}}, {"name": "StatefulPartitionedCall/yamnet_frames/tf.signal.frame_1/frame/mul", "op": "Mul", "input": ["StatefulPartitionedCall/yamnet_frames/tf.signal.frame_1/frame/floordiv_3", "StatefulPartitionedCall/yamnet_frames/tf.signal.frame_1/frame/mul/y"], "attr": {"T": {"type": "DT_INT32"}}}, {"name": "StatefulPartitionedCall/yamnet_frames/tf.signal.frame_1/frame/concat_1/values_1", "op": "Pack", "input": ["StatefulPartitionedCall/yamnet_frames/tf.signal.frame_1/frame/floordiv_3", "StatefulPartitionedCall/yamnet_frames/tf.signal.frame_1/frame/concat_1/values_1/1"], "attr": {"axis": {"i": "0"}, "N": {"i": "2"}, "T": {"type": "DT_INT32"}}}, {"name": "StatefulPartitionedCall/yamnet_frames/tf.signal.frame_1/frame/floordiv", "op": "FloorDiv", "input": ["StatefulPartitionedCall/yamnet_frames/tf.signal.frame_1/frame/sub_2", "StatefulPartitionedCall/yamnet_frames/tf.signal.frame_1/frame/frame_step"], "attr": {"T": {"type": "DT_INT32"}}}, {"name": "ConstantFolding/StatefulPartitionedCall/yamnet_frames/tf.signal.frame_1/frame/concat/values_1_const_axis", "op": "Const", "input": ["^StatefulPartitionedCall/yamnet_frames/tf.signal.frame_1/frame/mul"], "attr": {"value": {"tensor": {"dtype": "DT_INT32", "tensorShape": {}}}, "dtype": {"type": "DT_INT32"}}}, {"name": "StatefulPartitionedCall/yamnet_frames/tf.signal.frame_1/frame/concat_1", "op": "ConcatV2", "input": ["StatefulPartitionedCall/yamnet_frames/tf.signal.frame_1/frame/split", "StatefulPartitionedCall/yamnet_frames/tf.signal.frame_1/frame/concat_1/values_1", "StatefulPartitionedCall/yamnet_frames/tf.signal.frame_1/frame/split:2", "StatefulPartitionedCall/yamnet_frames/tf.signal.frame_1/frame/concat_1/axis"], "attr": {"T": {"type": "DT_INT32"}, "N": {"i": "3"}, "Tidx": {"type": "DT_INT32"}}}, {"name": "StatefulPartitionedCall/yamnet_frames/tf.signal.frame_1/frame/add", "op": "AddV2", "input": ["StatefulPartitionedCall/yamnet_frames/tf.signal.frame_1/frame/add/x", "StatefulPartitionedCall/yamnet_frames/tf.signal.frame_1/frame/floordiv"], "attr": {"T": {"type": "DT_INT32"}}}, {"name": "StatefulPartitionedCall/yamnet_frames/tf.signal.frame_1/frame/concat/values_1", "op": "ExpandDims", "input": ["StatefulPartitionedCall/yamnet_frames/tf.signal.frame_1/frame/mul", "ConstantFolding/StatefulPartitionedCall/yamnet_frames/tf.signal.frame_1/frame/concat/values_1_const_axis"], "attr": {"T": {"type": "DT_INT32"}, "Tdim": {"type": "DT_INT32"}}}, {"name": "StatefulPartitionedCall/yamnet_frames/tf.signal.frame_1/frame/Maximum", "op": "Maximum", "input": ["StatefulPartitionedCall/yamnet_frames/tf.signal.frame_1/frame/Maximum/x", "StatefulPartitionedCall/yamnet_frames/tf.signal.frame_1/frame/add"], "attr": {"T": {"type": "DT_INT32"}}}, {"name": "StatefulPartitionedCall/yamnet_frames/tf.signal.frame_1/frame/concat", "op": "ConcatV2", "input": ["StatefulPartitionedCall/yamnet_frames/tf.signal.frame_1/frame/split", "StatefulPartitionedCall/yamnet_frames/tf.signal.frame_1/frame/concat/values_1", "StatefulPartitionedCall/yamnet_frames/tf.signal.frame_1/frame/split:2", "StatefulPartitionedCall/yamnet_frames/tf.signal.frame_1/frame/concat/axis"], "attr": {"N": {"i": "3"}, "T": {"type": "DT_INT32"}, "Tidx": {"type": "DT_INT32"}}}, {"name": "StatefulPartitionedCall/yamnet_frames/tf.signal.frame_1/frame/range_1", "op": "Range", "input": ["StatefulPartitionedCall/yamnet_frames/tf.signal.frame_1/frame/range_1/start", "StatefulPartitionedCall/yamnet_frames/tf.signal.frame_1/frame/Maximum", "StatefulPartitionedCall/yamnet_frames/tf.signal.frame_1/frame/range_1/delta"], "attr": {"Tidx": {"type": "DT_INT32"}}}, {"name": "StatefulPartitionedCall/yamnet_frames/tf.signal.frame_1/frame/Reshape_2/shape", "op": "Pack", "input": ["StatefulPartitionedCall/yamnet_frames/tf.signal.frame_1/frame/Maximum", "StatefulPartitionedCall/yamnet_frames/tf.signal.frame_1/frame/Reshape_2/shape/1"], "attr": {"N": {"i": "2"}, "T": {"type": "DT_INT32"}, "axis": {"i": "0"}}}, {"name": "StatefulPartitionedCall/yamnet_frames/tf.signal.frame_1/frame/concat_2/values_1", "op": "Pack", "input": ["StatefulPartitionedCall/yamnet_frames/tf.signal.frame_1/frame/Maximum", "StatefulPartitionedCall/yamnet_frames/tf.signal.frame_1/frame/frame_length"], "attr": {"T": {"type": "DT_INT32"}, "axis": {"i": "0"}, "N": {"i": "2"}}}, {"name": "StatefulPartitionedCall/yamnet_frames/tf.signal.frame_1/frame/StridedSlice", "op": "StridedSlice", "input": ["StatefulPartitionedCall/yamnet_frames/tf.compat.v1.pad_1/Pad", "StatefulPartitionedCall/yamnet_frames/tf.signal.frame_1/frame/zeros_like", "StatefulPartitionedCall/yamnet_frames/tf.signal.frame_1/frame/concat", "StatefulPartitionedCall/yamnet_frames/tf.signal.frame_1/frame/ones_like"], "attr": {"begin_mask": {"i": "0"}, "T": {"type": "DT_FLOAT"}, "shrink_axis_mask": {"i": "0"}, "Index": {"type": "DT_INT32"}, "ellipsis_mask": {"i": "0"}, "end_mask": {"i": "0"}, "new_axis_mask": {"i": "0"}}}, {"name": "StatefulPartitionedCall/yamnet_frames/tf.signal.frame_1/frame/mul_1", "op": "Mul", "input": ["StatefulPartitionedCall/yamnet_frames/tf.signal.frame_1/frame/range_1", "StatefulPartitionedCall/yamnet_frames/tf.signal.frame_1/frame/floordiv_2"], "attr": {"T": {"type": "DT_INT32"}}}, {"name": "StatefulPartitionedCall/yamnet_frames/tf.signal.frame_1/frame/concat_2", "op": "ConcatV2", "input": ["StatefulPartitionedCall/yamnet_frames/tf.signal.frame_1/frame/split", "StatefulPartitionedCall/yamnet_frames/tf.signal.frame_1/frame/concat_2/values_1", "StatefulPartitionedCall/yamnet_frames/tf.signal.frame_1/frame/split:2", "StatefulPartitionedCall/yamnet_frames/tf.signal.frame_1/frame/concat_2/axis"], "attr": {"Tidx": {"type": "DT_INT32"}, "N": {"i": "3"}, "T": {"type": "DT_INT32"}}}, {"name": "StatefulPartitionedCall/yamnet_frames/tf.signal.frame_1/frame/Reshape_1", "op": "Reshape", "input": ["StatefulPartitionedCall/yamnet_frames/tf.signal.frame_1/frame/StridedSlice", "StatefulPartitionedCall/yamnet_frames/tf.signal.frame_1/frame/concat_1"], "attr": {"Tshape": {"type": "DT_INT32"}, "T": {"type": "DT_FLOAT"}}}, {"name": "StatefulPartitionedCall/yamnet_frames/tf.signal.frame_1/frame/Reshape_2", "op": "Reshape", "input": ["StatefulPartitionedCall/yamnet_frames/tf.signal.frame_1/frame/mul_1", "StatefulPartitionedCall/yamnet_frames/tf.signal.frame_1/frame/Reshape_2/shape"], "attr": {"T": {"type": "DT_INT32"}, "Tshape": {"type": "DT_INT32"}}}, {"name": "StatefulPartitionedCall/yamnet_frames/tf.signal.frame_1/frame/add_1", "op": "AddV2", "input": ["StatefulPartitionedCall/yamnet_frames/tf.signal.frame_1/frame/Reshape_2", "StatefulPartitionedCall/yamnet_frames/tf.signal.frame_1/frame/Reshape_3"], "attr": {"T": {"type": "DT_INT32"}}}, {"name": "StatefulPartitionedCall/yamnet_frames/tf.signal.frame_1/frame/GatherV2", "op": "GatherV2", "input": ["StatefulPartitionedCall/yamnet_frames/tf.signal.frame_1/frame/Reshape_1", "StatefulPartitionedCall/yamnet_frames/tf.signal.frame_1/frame/add_1", "StatefulPartitionedCall/yamnet_frames/tf.signal.frame_1/frame/strided_slice"], "attr": {"Tparams": {"type": "DT_FLOAT"}, "Tindices": {"type": "DT_INT32"}, "batch_dims": {"i": "0"}, "Taxis": {"type": "DT_INT32"}}}, {"name": "StatefulPartitionedCall/yamnet_frames/tf.signal.frame_1/frame/Reshape_4", "op": "Reshape", "input": ["StatefulPartitionedCall/yamnet_frames/tf.signal.frame_1/frame/GatherV2", "StatefulPartitionedCall/yamnet_frames/tf.signal.frame_1/frame/concat_2"], "attr": {"Tshape": {"type": "DT_INT32"}, "T": {"type": "DT_FLOAT"}}}, {"name": "StatefulPartitionedCall/yamnet_frames/tf.math.multiply_2/Mul", "op": "Mul", "input": ["StatefulPartitionedCall/yamnet_frames/tf.signal.frame_1/frame/Reshape_4", "unknown_3"], "attr": {"T": {"type": "DT_FLOAT"}}}, {"name": "StatefulPartitionedCall/yamnet_frames/tf.compat.v1.shape_2/Shape", "op": "Shape", "input": ["StatefulPartitionedCall/yamnet_frames/tf.math.multiply_2/Mul"], "attr": {"T": {"type": "DT_FLOAT"}, "out_type": {"type": "DT_INT32"}}}, {"name": "StatefulPartitionedCall/yamnet_frames/tf.__operators__.getitem_2/strided_slice", "op": "StridedSlice", "input": ["StatefulPartitionedCall/yamnet_frames/tf.compat.v1.shape_2/Shape", "StatefulPartitionedCall/yamnet_frames/tf.__operators__.getitem_2/strided_slice/stack", "StatefulPartitionedCall/yamnet_frames/tf.__operators__.getitem_2/strided_slice/stack_1", "StatefulPartitionedCall/yamnet_frames/tf.__operators__.getitem_2/strided_slice/stack_2"], "attr": {"new_axis_mask": {"i": "0"}, "shrink_axis_mask": {"i": "1"}, "end_mask": {"i": "0"}, "Index": {"type": "DT_INT32"}, "T": {"type": "DT_INT32"}, "ellipsis_mask": {"i": "0"}, "begin_mask": {"i": "0"}}}, {"name": "StatefulPartitionedCall/yamnet_frames/tf.math.subtract_7/Sub", "op": "Sub", "input": ["unknown_5", "StatefulPartitionedCall/yamnet_frames/tf.__operators__.getitem_2/strided_slice"], "attr": {"T": {"type": "DT_INT32"}}}, {"name": "StatefulPartitionedCall/yamnet_frames/tf.math.subtract_6/Sub", "op": "Sub", "input": ["unknown_4", "StatefulPartitionedCall/yamnet_frames/tf.__operators__.getitem_2/strided_slice"], "attr": {"T": {"type": "DT_INT32"}}}, {"name": "StatefulPartitionedCall/yamnet_frames/tf.compat.v1.floor_div/FloorDiv", "op": "FloorDiv", "input": ["StatefulPartitionedCall/yamnet_frames/tf.math.subtract_6/Sub", "StatefulPartitionedCall/yamnet_frames/tf.compat.v1.floor_div/FloorDiv/y"], "attr": {"T": {"type": "DT_INT32"}}}, {"name": "StatefulPartitionedCall/yamnet_frames/tf.math.subtract_8/Sub", "op": "Sub", "input": ["StatefulPartitionedCall/yamnet_frames/tf.math.subtract_7/Sub", "StatefulPartitionedCall/yamnet_frames/tf.compat.v1.floor_div/FloorDiv"], "attr": {"T": {"type": "DT_INT32"}}}, {"name": "StatefulPartitionedCall/yamnet_frames/tf.compat.v1.pad_2/Pad/paddings/1", "op": "Pack", "input": ["StatefulPartitionedCall/yamnet_frames/tf.compat.v1.floor_div/FloorDiv", "StatefulPartitionedCall/yamnet_frames/tf.math.subtract_8/Sub"], "attr": {"N": {"i": "2"}, "T": {"type": "DT_INT32"}, "axis": {"i": "0"}}}, {"name": "StatefulPartitionedCall/yamnet_frames/tf.compat.v1.pad_2/Pad/paddings", "op": "Pack", "input": ["StatefulPartitionedCall/yamnet_frames/tf.compat.v1.pad_2/Pad/paddings/0_1", "StatefulPartitionedCall/yamnet_frames/tf.compat.v1.pad_2/Pad/paddings/1"], "attr": {"axis": {"i": "0"}, "T": {"type": "DT_INT32"}, "N": {"i": "2"}}}, {"name": "StatefulPartitionedCall/yamnet_frames/tf.compat.v1.pad_2/Pad", "op": "Pad", "input": ["StatefulPartitionedCall/yamnet_frames/tf.math.multiply_2/Mul", "StatefulPartitionedCall/yamnet_frames/tf.compat.v1.pad_2/Pad/paddings"], "attr": {"T": {"type": "DT_FLOAT"}, "Tpaddings": {"type": "DT_INT32"}}}, {"name": "StatefulPartitionedCall/yamnet_frames/tf.linalg.matmul_1/MatMul", "op": "MatMul", "input": ["StatefulPartitionedCall/yamnet_frames/tf.compat.v1.pad_2/Pad", "unknown_7"], "device": "/device:CPU:0", "attr": {"transpose_a": {"b": false}, "T": {"type": "DT_FLOAT"}, "transpose_b": {"b": false}}}, {"name": "StatefulPartitionedCall/yamnet_frames/tf.linalg.matmul_2/MatMul", "op": "MatMul", "input": ["StatefulPartitionedCall/yamnet_frames/tf.compat.v1.pad_2/Pad", "unknown_6"], "device": "/device:CPU:0", "attr": {"T": {"type": "DT_FLOAT"}, "transpose_b": {"b": false}, "transpose_a": {"b": false}}}, {"name": "StatefulPartitionedCall/yamnet_frames/tf.math.multiply_3/ArithmeticOptimizer/ReplaceMulWithSquare_Mul", "op": "Square", "input": ["StatefulPartitionedCall/yamnet_frames/tf.linalg.matmul_1/MatMul"], "attr": {"T": {"type": "DT_FLOAT"}}}, {"name": "StatefulPartitionedCall/yamnet_frames/tf.math.multiply_4/ArithmeticOptimizer/ReplaceMulWithSquare_Mul", "op": "Square", "input": ["StatefulPartitionedCall/yamnet_frames/tf.linalg.matmul_2/MatMul"], "attr": {"T": {"type": "DT_FLOAT"}}}, {"name": "StatefulPartitionedCall/yamnet_frames/tf.math.add/Add", "op": "AddV2", "input": ["StatefulPartitionedCall/yamnet_frames/tf.math.multiply_3/ArithmeticOptimizer/ReplaceMulWithSquare_Mul", "StatefulPartitionedCall/yamnet_frames/tf.math.multiply_4/ArithmeticOptimizer/ReplaceMulWithSquare_Mul"], "attr": {"T": {"type": "DT_FLOAT"}}}, {"name": "StatefulPartitionedCall/yamnet_frames/tf.math.sqrt/Sqrt", "op": "Sqrt", "input": ["StatefulPartitionedCall/yamnet_frames/tf.math.add/Add"], "attr": {"T": {"type": "DT_FLOAT"}}}, {"name": "StatefulPartitionedCall/yamnet_frames/tf.linalg.matmul_3/MatMul", "op": "MatMul", "input": ["StatefulPartitionedCall/yamnet_frames/tf.math.sqrt/Sqrt", "unknown_8"], "device": "/device:CPU:0", "attr": {"T": {"type": "DT_FLOAT"}, "transpose_a": {"b": false}, "transpose_b": {"b": false}}}, {"name": "StatefulPartitionedCall/yamnet_frames/tf.__operators__.add_3/AddV2", "op": "AddV2", "input": ["StatefulPartitionedCall/yamnet_frames/tf.linalg.matmul_3/MatMul", "StatefulPartitionedCall/yamnet_frames/tf.__operators__.add_3/y"], "attr": {"T": {"type": "DT_FLOAT"}}}, {"name": "StatefulPartitionedCall/yamnet_frames/tf.math.log_1/Log", "op": "Log", "input": ["StatefulPartitionedCall/yamnet_frames/tf.__operators__.add_3/AddV2"], "attr": {"T": {"type": "DT_FLOAT"}}}, {"name": "Identity_1", "op": "Identity", "input": ["StatefulPartitionedCall/yamnet_frames/tf.math.log_1/Log"], "attr": {"T": {"type": "DT_FLOAT"}}}, {"name": "StatefulPartitionedCall/yamnet_frames/tf.signal.frame_2/frame/Shape", "op": "Shape", "input": ["StatefulPartitionedCall/yamnet_frames/tf.math.log_1/Log"], "attr": {"T": {"type": "DT_FLOAT"}, "out_type": {"type": "DT_INT32"}}}, {"name": "StatefulPartitionedCall/yamnet_frames/tf.signal.frame_2/frame/split", "op": "SplitV", "input": ["StatefulPartitionedCall/yamnet_frames/tf.signal.frame_2/frame/Shape", "StatefulPartitionedCall/yamnet_frames/tf.signal.frame_2/frame/packed", "StatefulPartitionedCall/yamnet_frames/tf.signal.frame_2/frame/split/split_dim"], "attr": {"num_split": {"i": "3"}, "T": {"type": "DT_INT32"}, "Tlen": {"type": "DT_INT32"}}}, {"name": "StatefulPartitionedCall/yamnet_frames/tf.signal.frame_2/frame/Reshape", "op": "Reshape", "input": ["StatefulPartitionedCall/yamnet_frames/tf.signal.frame_2/frame/split:1", "StatefulPartitionedCall/yamnet_frames/tf.signal.frame_2/frame/Reshape/shape_1"], "attr": {"T": {"type": "DT_INT32"}, "Tshape": {"type": "DT_INT32"}}}, {"name": "StatefulPartitionedCall/yamnet_frames/tf.signal.frame_2/frame/floordiv_3", "op": "FloorDiv", "input": ["StatefulPartitionedCall/yamnet_frames/tf.signal.frame_2/frame/Reshape", "StatefulPartitionedCall/yamnet_frames/tf.signal.frame_2/frame/floordiv_3/y"], "attr": {"T": {"type": "DT_INT32"}}}, {"name": "StatefulPartitionedCall/yamnet_frames/tf.signal.frame_2/frame/sub_2", "op": "Sub", "input": ["StatefulPartitionedCall/yamnet_frames/tf.signal.frame_2/frame/Reshape", "StatefulPartitionedCall/yamnet_frames/tf.signal.frame_2/frame/frame_length"], "attr": {"T": {"type": "DT_INT32"}}}, {"name": "StatefulPartitionedCall/yamnet_frames/tf.signal.frame_2/frame/mul", "op": "Mul", "input": ["StatefulPartitionedCall/yamnet_frames/tf.signal.frame_2/frame/floordiv_3", "StatefulPartitionedCall/yamnet_frames/tf.signal.frame_2/frame/mul/y"], "attr": {"T": {"type": "DT_INT32"}}}, {"name": "StatefulPartitionedCall/yamnet_frames/tf.signal.frame_2/frame/concat_1/values_1", "op": "Pack", "input": ["StatefulPartitionedCall/yamnet_frames/tf.signal.frame_2/frame/floordiv_3", "StatefulPartitionedCall/yamnet_frames/tf.signal.frame_2/frame/concat_1/values_1/1"], "attr": {"axis": {"i": "0"}, "N": {"i": "2"}, "T": {"type": "DT_INT32"}}}, {"name": "StatefulPartitionedCall/yamnet_frames/tf.signal.frame_2/frame/floordiv", "op": "FloorDiv", "input": ["StatefulPartitionedCall/yamnet_frames/tf.signal.frame_2/frame/sub_2", "StatefulPartitionedCall/yamnet_frames/tf.signal.frame_2/frame/frame_step"], "attr": {"T": {"type": "DT_INT32"}}}, {"name": "ConstantFolding/StatefulPartitionedCall/yamnet_frames/tf.signal.frame_2/frame/concat/values_1_const_axis", "op": "Const", "input": ["^StatefulPartitionedCall/yamnet_frames/tf.signal.frame_2/frame/mul"], "attr": {"value": {"tensor": {"dtype": "DT_INT32", "tensorShape": {}}}, "dtype": {"type": "DT_INT32"}}}, {"name": "StatefulPartitionedCall/yamnet_frames/tf.signal.frame_2/frame/concat_1", "op": "ConcatV2", "input": ["StatefulPartitionedCall/yamnet_frames/tf.signal.frame_2/frame/split", "StatefulPartitionedCall/yamnet_frames/tf.signal.frame_2/frame/concat_1/values_1", "StatefulPartitionedCall/yamnet_frames/tf.signal.frame_2/frame/split:2", "StatefulPartitionedCall/yamnet_frames/tf.signal.frame_2/frame/concat_1/axis"], "attr": {"Tidx": {"type": "DT_INT32"}, "T": {"type": "DT_INT32"}, "N": {"i": "3"}}}, {"name": "StatefulPartitionedCall/yamnet_frames/tf.signal.frame_2/frame/add", "op": "AddV2", "input": ["StatefulPartitionedCall/yamnet_frames/tf.signal.frame_2/frame/add/x", "StatefulPartitionedCall/yamnet_frames/tf.signal.frame_2/frame/floordiv"], "attr": {"T": {"type": "DT_INT32"}}}, {"name": "StatefulPartitionedCall/yamnet_frames/tf.signal.frame_2/frame/concat/values_1", "op": "ExpandDims", "input": ["StatefulPartitionedCall/yamnet_frames/tf.signal.frame_2/frame/mul", "ConstantFolding/StatefulPartitionedCall/yamnet_frames/tf.signal.frame_2/frame/concat/values_1_const_axis"], "attr": {"T": {"type": "DT_INT32"}, "Tdim": {"type": "DT_INT32"}}}, {"name": "StatefulPartitionedCall/yamnet_frames/tf.signal.frame_2/frame/Maximum", "op": "Maximum", "input": ["StatefulPartitionedCall/yamnet_frames/tf.signal.frame_2/frame/Maximum/x", "StatefulPartitionedCall/yamnet_frames/tf.signal.frame_2/frame/add"], "attr": {"T": {"type": "DT_INT32"}}}, {"name": "StatefulPartitionedCall/yamnet_frames/tf.signal.frame_2/frame/concat", "op": "ConcatV2", "input": ["StatefulPartitionedCall/yamnet_frames/tf.signal.frame_2/frame/split", "StatefulPartitionedCall/yamnet_frames/tf.signal.frame_2/frame/concat/values_1", "StatefulPartitionedCall/yamnet_frames/tf.signal.frame_2/frame/split:2", "StatefulPartitionedCall/yamnet_frames/tf.signal.frame_2/frame/concat/axis"], "attr": {"T": {"type": "DT_INT32"}, "Tidx": {"type": "DT_INT32"}, "N": {"i": "3"}}}, {"name": "StatefulPartitionedCall/yamnet_frames/tf.signal.frame_2/frame/range_1", "op": "Range", "input": ["StatefulPartitionedCall/yamnet_frames/tf.signal.frame_2/frame/range_1/start", "StatefulPartitionedCall/yamnet_frames/tf.signal.frame_2/frame/Maximum", "StatefulPartitionedCall/yamnet_frames/tf.signal.frame_2/frame/range_1/delta"], "attr": {"Tidx": {"type": "DT_INT32"}}}, {"name": "StatefulPartitionedCall/yamnet_frames/tf.signal.frame_2/frame/Reshape_2/shape", "op": "Pack", "input": ["StatefulPartitionedCall/yamnet_frames/tf.signal.frame_2/frame/Maximum", "StatefulPartitionedCall/yamnet_frames/tf.signal.frame_2/frame/Reshape_2/shape/1"], "attr": {"T": {"type": "DT_INT32"}, "N": {"i": "2"}, "axis": {"i": "0"}}}, {"name": "StatefulPartitionedCall/yamnet_frames/tf.signal.frame_2/frame/concat_2/values_1", "op": "Pack", "input": ["StatefulPartitionedCall/yamnet_frames/tf.signal.frame_2/frame/Maximum", "StatefulPartitionedCall/yamnet_frames/tf.signal.frame_2/frame/frame_length"], "attr": {"N": {"i": "2"}, "axis": {"i": "0"}, "T": {"type": "DT_INT32"}}}, {"name": "StatefulPartitionedCall/yamnet_frames/tf.signal.frame_2/frame/StridedSlice", "op": "StridedSlice", "input": ["StatefulPartitionedCall/yamnet_frames/tf.math.log_1/Log", "StatefulPartitionedCall/yamnet_frames/tf.signal.frame_2/frame/zeros_like", "StatefulPartitionedCall/yamnet_frames/tf.signal.frame_2/frame/concat", "StatefulPartitionedCall/yamnet_frames/tf.signal.frame_2/frame/ones_like"], "attr": {"ellipsis_mask": {"i": "0"}, "new_axis_mask": {"i": "0"}, "shrink_axis_mask": {"i": "0"}, "begin_mask": {"i": "0"}, "T": {"type": "DT_FLOAT"}, "Index": {"type": "DT_INT32"}, "end_mask": {"i": "0"}}}, {"name": "StatefulPartitionedCall/yamnet_frames/tf.signal.frame_2/frame/Reshape_2", "op": "Reshape", "input": ["StatefulPartitionedCall/yamnet_frames/tf.signal.frame_2/frame/range_1", "StatefulPartitionedCall/yamnet_frames/tf.signal.frame_2/frame/Reshape_2/shape"], "attr": {"T": {"type": "DT_INT32"}, "Tshape": {"type": "DT_INT32"}}}, {"name": "StatefulPartitionedCall/yamnet_frames/tf.signal.frame_2/frame/concat_2", "op": "ConcatV2", "input": ["StatefulPartitionedCall/yamnet_frames/tf.signal.frame_2/frame/split", "StatefulPartitionedCall/yamnet_frames/tf.signal.frame_2/frame/concat_2/values_1", "StatefulPartitionedCall/yamnet_frames/tf.signal.frame_2/frame/split:2", "StatefulPartitionedCall/yamnet_frames/tf.signal.frame_2/frame/concat_2/axis"], "attr": {"N": {"i": "3"}, "T": {"type": "DT_INT32"}, "Tidx": {"type": "DT_INT32"}}}, {"name": "StatefulPartitionedCall/yamnet_frames/tf.signal.frame_2/frame/Reshape_1", "op": "Reshape", "input": ["StatefulPartitionedCall/yamnet_frames/tf.signal.frame_2/frame/StridedSlice", "StatefulPartitionedCall/yamnet_frames/tf.signal.frame_2/frame/concat_1"], "attr": {"Tshape": {"type": "DT_INT32"}, "T": {"type": "DT_FLOAT"}}}, {"name": "StatefulPartitionedCall/yamnet_frames/tf.signal.frame_2/frame/add_1", "op": "AddV2", "input": ["StatefulPartitionedCall/yamnet_frames/tf.signal.frame_2/frame/Reshape_2", "StatefulPartitionedCall/yamnet_frames/tf.signal.frame_2/frame/Reshape_3"], "attr": {"T": {"type": "DT_INT32"}}}, {"name": "StatefulPartitionedCall/yamnet_frames/tf.signal.frame_2/frame/GatherV2", "op": "GatherV2", "input": ["StatefulPartitionedCall/yamnet_frames/tf.signal.frame_2/frame/Reshape_1", "StatefulPartitionedCall/yamnet_frames/tf.signal.frame_2/frame/add_1", "StatefulPartitionedCall/yamnet_frames/tf.signal.frame_2/frame/strided_slice"], "attr": {"Tparams": {"type": "DT_FLOAT"}, "Tindices": {"type": "DT_INT32"}, "Taxis": {"type": "DT_INT32"}, "batch_dims": {"i": "0"}}}, {"name": "StatefulPartitionedCall/yamnet_frames/tf.signal.frame_2/frame/Reshape_4", "op": "Reshape", "input": ["StatefulPartitionedCall/yamnet_frames/tf.signal.frame_2/frame/GatherV2", "StatefulPartitionedCall/yamnet_frames/tf.signal.frame_2/frame/concat_2"], "attr": {"T": {"type": "DT_FLOAT"}, "Tshape": {"type": "DT_INT32"}}}, {"name": "StatefulPartitionedCall/yamnet_frames/reshape_1/Shape", "op": "Shape", "input": ["StatefulPartitionedCall/yamnet_frames/tf.signal.frame_2/frame/Reshape_4"], "attr": {"out_type": {"type": "DT_INT32"}, "T": {"type": "DT_FLOAT"}}}, {"name": "StatefulPartitionedCall/yamnet_frames/reshape_1/strided_slice", "op": "StridedSlice", "input": ["StatefulPartitionedCall/yamnet_frames/reshape_1/Shape", "StatefulPartitionedCall/yamnet_frames/reshape_1/strided_slice/stack", "StatefulPartitionedCall/yamnet_frames/reshape_1/strided_slice/stack_1", "StatefulPartitionedCall/yamnet_frames/reshape_1/strided_slice/stack_2"], "attr": {"shrink_axis_mask": {"i": "1"}, "begin_mask": {"i": "0"}, "Index": {"type": "DT_INT32"}, "T": {"type": "DT_INT32"}, "end_mask": {"i": "0"}, "ellipsis_mask": {"i": "0"}, "new_axis_mask": {"i": "0"}}}, {"name": "StatefulPartitionedCall/yamnet_frames/reshape_1/Reshape/shape", "op": "Pack", "input": ["StatefulPartitionedCall/yamnet_frames/reshape_1/strided_slice", "StatefulPartitionedCall/yamnet_frames/reshape_1/Reshape/shape/1", "StatefulPartitionedCall/yamnet_frames/reshape_1/Reshape/shape/2", "StatefulPartitionedCall/yamnet_frames/reshape_1/Reshape/shape/3"], "attr": {"T": {"type": "DT_INT32"}, "axis": {"i": "0"}, "N": {"i": "4"}}}, {"name": "StatefulPartitionedCall/yamnet_frames/reshape_1/Reshape", "op": "Reshape", "input": ["StatefulPartitionedCall/yamnet_frames/tf.signal.frame_2/frame/Reshape_4", "StatefulPartitionedCall/yamnet_frames/reshape_1/Reshape/shape"], "attr": {"T": {"type": "DT_FLOAT"}, "Tshape": {"type": "DT_INT32"}}}, {"name": "StatefulPartitionedCall/yamnet_frames/layer1/relu/Relu", "op": "_FusedConv2D", "input": ["StatefulPartitionedCall/yamnet_frames/reshape_1/Reshape", "StatefulPartitionedCall/yamnet_frames/layer1/conv/Conv2D_weights", "StatefulPartitionedCall/yamnet_frames/layer1/conv/Conv2D_bn_offset"], "device": "/device:CPU:0", "attr": {"num_args": {"i": "1"}, "epsilon": {"f": 0.0}, "strides": {"list": {"i": ["1", "2", "2", "1"]}}, "use_cudnn_on_gpu": {"b": true}, "data_format": {"s": "TkhXQw=="}, "fused_ops": {"list": {"s": ["Qmlhc0FkZA==", "UmVsdQ=="]}}, "padding": {"s": "U0FNRQ=="}, "explicit_paddings": {"list": {}}, "dilations": {"list": {"i": ["1", "1", "1", "1"]}}, "T": {"type": "DT_FLOAT"}}}, {"name": "StatefulPartitionedCall/yamnet_frames/layer2/depthwise_conv/depthwise", "op": "FusedDepthwiseConv2dNative", "input": ["StatefulPartitionedCall/yamnet_frames/layer1/relu/Relu", "StatefulPartitionedCall/yamnet_frames/layer2/depthwise_conv/depthwise_weights", "StatefulPartitionedCall/yamnet_frames/layer2/depthwise_conv/depthwise_bn_offset"], "attr": {"num_args": {"i": "1"}, "strides": {"list": {"i": ["1", "1", "1", "1"]}}, "fused_ops": {"list": {"s": ["Qmlhc0FkZA==", "UmVsdQ=="]}}, "data_format": {"s": "TkhXQw=="}, "padding": {"s": "U0FNRQ=="}, "T": {"type": "DT_FLOAT"}, "dilations": {"list": {"i": ["1", "1", "1", "1"]}}, "explicit_paddings": {"list": {}}}}, {"name": "StatefulPartitionedCall/yamnet_frames/layer2/pointwise_conv/relu/Relu", "op": "_FusedConv2D", "input": ["StatefulPartitionedCall/yamnet_frames/layer2/depthwise_conv/depthwise", "StatefulPartitionedCall/yamnet_frames/layer2/pointwise_conv/Conv2D_weights", "StatefulPartitionedCall/yamnet_frames/layer2/pointwise_conv/Conv2D_bn_offset"], "device": "/device:CPU:0", "attr": {"use_cudnn_on_gpu": {"b": true}, "T": {"type": "DT_FLOAT"}, "fused_ops": {"list": {"s": ["Qmlhc0FkZA==", "UmVsdQ=="]}}, "dilations": {"list": {"i": ["1", "1", "1", "1"]}}, "strides": {"list": {"i": ["1", "1", "1", "1"]}}, "explicit_paddings": {"list": {}}, "padding": {"s": "U0FNRQ=="}, "epsilon": {"f": 0.0}, "num_args": {"i": "1"}, "data_format": {"s": "TkhXQw=="}}}, {"name": "StatefulPartitionedCall/yamnet_frames/layer3/depthwise_conv/depthwise", "op": "FusedDepthwiseConv2dNative", "input": ["StatefulPartitionedCall/yamnet_frames/layer2/pointwise_conv/relu/Relu", "StatefulPartitionedCall/yamnet_frames/layer3/depthwise_conv/depthwise_weights", "StatefulPartitionedCall/yamnet_frames/layer3/depthwise_conv/depthwise_bn_offset"], "attr": {"fused_ops": {"list": {"s": ["Qmlhc0FkZA==", "UmVsdQ=="]}}, "T": {"type": "DT_FLOAT"}, "strides": {"list": {"i": ["1", "2", "2", "1"]}}, "dilations": {"list": {"i": ["1", "1", "1", "1"]}}, "explicit_paddings": {"list": {}}, "num_args": {"i": "1"}, "padding": {"s": "U0FNRQ=="}, "data_format": {"s": "TkhXQw=="}}}, {"name": "StatefulPartitionedCall/yamnet_frames/layer3/pointwise_conv/relu/Relu", "op": "_FusedConv2D", "input": ["StatefulPartitionedCall/yamnet_frames/layer3/depthwise_conv/depthwise", "StatefulPartitionedCall/yamnet_frames/layer3/pointwise_conv/Conv2D_weights", "StatefulPartitionedCall/yamnet_frames/layer3/pointwise_conv/Conv2D_bn_offset"], "device": "/device:CPU:0", "attr": {"fused_ops": {"list": {"s": ["Qmlhc0FkZA==", "UmVsdQ=="]}}, "epsilon": {"f": 0.0}, "T": {"type": "DT_FLOAT"}, "num_args": {"i": "1"}, "data_format": {"s": "TkhXQw=="}, "use_cudnn_on_gpu": {"b": true}, "dilations": {"list": {"i": ["1", "1", "1", "1"]}}, "padding": {"s": "U0FNRQ=="}, "strides": {"list": {"i": ["1", "1", "1", "1"]}}, "explicit_paddings": {"list": {}}}}, {"name": "StatefulPartitionedCall/yamnet_frames/layer4/depthwise_conv/depthwise", "op": "FusedDepthwiseConv2dNative", "input": ["StatefulPartitionedCall/yamnet_frames/layer3/pointwise_conv/relu/Relu", "StatefulPartitionedCall/yamnet_frames/layer4/depthwise_conv/depthwise_weights", "StatefulPartitionedCall/yamnet_frames/layer4/depthwise_conv/depthwise_bn_offset"], "attr": {"num_args": {"i": "1"}, "data_format": {"s": "TkhXQw=="}, "dilations": {"list": {"i": ["1", "1", "1", "1"]}}, "strides": {"list": {"i": ["1", "1", "1", "1"]}}, "padding": {"s": "U0FNRQ=="}, "explicit_paddings": {"list": {}}, "fused_ops": {"list": {"s": ["Qmlhc0FkZA==", "UmVsdQ=="]}}, "T": {"type": "DT_FLOAT"}}}, {"name": "StatefulPartitionedCall/yamnet_frames/layer4/pointwise_conv/relu/Relu", "op": "_FusedConv2D", "input": ["StatefulPartitionedCall/yamnet_frames/layer4/depthwise_conv/depthwise", "StatefulPartitionedCall/yamnet_frames/layer4/pointwise_conv/Conv2D_weights", "StatefulPartitionedCall/yamnet_frames/layer4/pointwise_conv/Conv2D_bn_offset"], "device": "/device:CPU:0", "attr": {"T": {"type": "DT_FLOAT"}, "dilations": {"list": {"i": ["1", "1", "1", "1"]}}, "padding": {"s": "U0FNRQ=="}, "use_cudnn_on_gpu": {"b": true}, "data_format": {"s": "TkhXQw=="}, "fused_ops": {"list": {"s": ["Qmlhc0FkZA==", "UmVsdQ=="]}}, "epsilon": {"f": 0.0}, "explicit_paddings": {"list": {}}, "num_args": {"i": "1"}, "strides": {"list": {"i": ["1", "1", "1", "1"]}}}}, {"name": "StatefulPartitionedCall/yamnet_frames/layer5/depthwise_conv/depthwise", "op": "FusedDepthwiseConv2dNative", "input": ["StatefulPartitionedCall/yamnet_frames/layer4/pointwise_conv/relu/Relu", "StatefulPartitionedCall/yamnet_frames/layer5/depthwise_conv/depthwise_weights", "StatefulPartitionedCall/yamnet_frames/layer5/depthwise_conv/depthwise_bn_offset"], "attr": {"num_args": {"i": "1"}, "fused_ops": {"list": {"s": ["Qmlhc0FkZA==", "UmVsdQ=="]}}, "data_format": {"s": "TkhXQw=="}, "strides": {"list": {"i": ["1", "2", "2", "1"]}}, "T": {"type": "DT_FLOAT"}, "explicit_paddings": {"list": {}}, "dilations": {"list": {"i": ["1", "1", "1", "1"]}}, "padding": {"s": "U0FNRQ=="}}}, {"name": "StatefulPartitionedCall/yamnet_frames/layer5/pointwise_conv/relu/Relu", "op": "_FusedConv2D", "input": ["StatefulPartitionedCall/yamnet_frames/layer5/depthwise_conv/depthwise", "StatefulPartitionedCall/yamnet_frames/layer5/pointwise_conv/Conv2D_weights", "StatefulPartitionedCall/yamnet_frames/layer5/pointwise_conv/Conv2D_bn_offset"], "device": "/device:CPU:0", "attr": {"dilations": {"list": {"i": ["1", "1", "1", "1"]}}, "use_cudnn_on_gpu": {"b": true}, "data_format": {"s": "TkhXQw=="}, "padding": {"s": "U0FNRQ=="}, "num_args": {"i": "1"}, "epsilon": {"f": 0.0}, "strides": {"list": {"i": ["1", "1", "1", "1"]}}, "explicit_paddings": {"list": {}}, "fused_ops": {"list": {"s": ["Qmlhc0FkZA==", "UmVsdQ=="]}}, "T": {"type": "DT_FLOAT"}}}, {"name": "StatefulPartitionedCall/yamnet_frames/layer6/depthwise_conv/depthwise", "op": "FusedDepthwiseConv2dNative", "input": ["StatefulPartitionedCall/yamnet_frames/layer5/pointwise_conv/relu/Relu", "StatefulPartitionedCall/yamnet_frames/layer6/depthwise_conv/depthwise_weights", "StatefulPartitionedCall/yamnet_frames/layer6/depthwise_conv/depthwise_bn_offset"], "attr": {"T": {"type": "DT_FLOAT"}, "num_args": {"i": "1"}, "data_format": {"s": "TkhXQw=="}, "explicit_paddings": {"list": {}}, "dilations": {"list": {"i": ["1", "1", "1", "1"]}}, "strides": {"list": {"i": ["1", "1", "1", "1"]}}, "fused_ops": {"list": {"s": ["Qmlhc0FkZA==", "UmVsdQ=="]}}, "padding": {"s": "U0FNRQ=="}}}, {"name": "StatefulPartitionedCall/yamnet_frames/layer6/pointwise_conv/relu/Relu", "op": "_FusedConv2D", "input": ["StatefulPartitionedCall/yamnet_frames/layer6/depthwise_conv/depthwise", "StatefulPartitionedCall/yamnet_frames/layer6/pointwise_conv/Conv2D_weights", "StatefulPartitionedCall/yamnet_frames/layer6/pointwise_conv/Conv2D_bn_offset"], "device": "/device:CPU:0", "attr": {"data_format": {"s": "TkhXQw=="}, "dilations": {"list": {"i": ["1", "1", "1", "1"]}}, "num_args": {"i": "1"}, "padding": {"s": "U0FNRQ=="}, "epsilon": {"f": 0.0}, "use_cudnn_on_gpu": {"b": true}, "strides": {"list": {"i": ["1", "1", "1", "1"]}}, "fused_ops": {"list": {"s": ["Qmlhc0FkZA==", "UmVsdQ=="]}}, "explicit_paddings": {"list": {}}, "T": {"type": "DT_FLOAT"}}}, {"name": "StatefulPartitionedCall/yamnet_frames/layer7/depthwise_conv/depthwise", "op": "FusedDepthwiseConv2dNative", "input": ["StatefulPartitionedCall/yamnet_frames/layer6/pointwise_conv/relu/Relu", "StatefulPartitionedCall/yamnet_frames/layer7/depthwise_conv/depthwise_weights", "StatefulPartitionedCall/yamnet_frames/layer7/depthwise_conv/depthwise_bn_offset"], "attr": {"padding": {"s": "U0FNRQ=="}, "dilations": {"list": {"i": ["1", "1", "1", "1"]}}, "data_format": {"s": "TkhXQw=="}, "fused_ops": {"list": {"s": ["Qmlhc0FkZA==", "UmVsdQ=="]}}, "num_args": {"i": "1"}, "T": {"type": "DT_FLOAT"}, "strides": {"list": {"i": ["1", "2", "2", "1"]}}, "explicit_paddings": {"list": {}}}}, {"name": "StatefulPartitionedCall/yamnet_frames/layer7/pointwise_conv/relu/Relu", "op": "_FusedConv2D", "input": ["StatefulPartitionedCall/yamnet_frames/layer7/depthwise_conv/depthwise", "StatefulPartitionedCall/yamnet_frames/layer7/pointwise_conv/Conv2D_weights", "StatefulPartitionedCall/yamnet_frames/layer7/pointwise_conv/Conv2D_bn_offset"], "device": "/device:CPU:0", "attr": {"epsilon": {"f": 0.0}, "padding": {"s": "U0FNRQ=="}, "use_cudnn_on_gpu": {"b": true}, "num_args": {"i": "1"}, "strides": {"list": {"i": ["1", "1", "1", "1"]}}, "dilations": {"list": {"i": ["1", "1", "1", "1"]}}, "data_format": {"s": "TkhXQw=="}, "fused_ops": {"list": {"s": ["Qmlhc0FkZA==", "UmVsdQ=="]}}, "explicit_paddings": {"list": {}}, "T": {"type": "DT_FLOAT"}}}, {"name": "StatefulPartitionedCall/yamnet_frames/layer8/depthwise_conv/depthwise", "op": "FusedDepthwiseConv2dNative", "input": ["StatefulPartitionedCall/yamnet_frames/layer7/pointwise_conv/relu/Relu", "StatefulPartitionedCall/yamnet_frames/layer8/depthwise_conv/depthwise_weights", "StatefulPartitionedCall/yamnet_frames/layer8/depthwise_conv/depthwise_bn_offset"], "attr": {"padding": {"s": "U0FNRQ=="}, "fused_ops": {"list": {"s": ["Qmlhc0FkZA==", "UmVsdQ=="]}}, "strides": {"list": {"i": ["1", "1", "1", "1"]}}, "dilations": {"list": {"i": ["1", "1", "1", "1"]}}, "data_format": {"s": "TkhXQw=="}, "T": {"type": "DT_FLOAT"}, "explicit_paddings": {"list": {}}, "num_args": {"i": "1"}}}, {"name": "StatefulPartitionedCall/yamnet_frames/layer8/pointwise_conv/relu/Relu", "op": "_FusedConv2D", "input": ["StatefulPartitionedCall/yamnet_frames/layer8/depthwise_conv/depthwise", "StatefulPartitionedCall/yamnet_frames/layer8/pointwise_conv/Conv2D_weights", "StatefulPartitionedCall/yamnet_frames/layer8/pointwise_conv/Conv2D_bn_offset"], "device": "/device:CPU:0", "attr": {"explicit_paddings": {"list": {}}, "padding": {"s": "U0FNRQ=="}, "dilations": {"list": {"i": ["1", "1", "1", "1"]}}, "data_format": {"s": "TkhXQw=="}, "fused_ops": {"list": {"s": ["Qmlhc0FkZA==", "UmVsdQ=="]}}, "num_args": {"i": "1"}, "epsilon": {"f": 0.0}, "use_cudnn_on_gpu": {"b": true}, "T": {"type": "DT_FLOAT"}, "strides": {"list": {"i": ["1", "1", "1", "1"]}}}}, {"name": "StatefulPartitionedCall/yamnet_frames/layer9/depthwise_conv/depthwise", "op": "FusedDepthwiseConv2dNative", "input": ["StatefulPartitionedCall/yamnet_frames/layer8/pointwise_conv/relu/Relu", "StatefulPartitionedCall/yamnet_frames/layer9/depthwise_conv/depthwise_weights", "StatefulPartitionedCall/yamnet_frames/layer9/depthwise_conv/depthwise_bn_offset"], "attr": {"explicit_paddings": {"list": {}}, "fused_ops": {"list": {"s": ["Qmlhc0FkZA==", "UmVsdQ=="]}}, "num_args": {"i": "1"}, "strides": {"list": {"i": ["1", "1", "1", "1"]}}, "T": {"type": "DT_FLOAT"}, "dilations": {"list": {"i": ["1", "1", "1", "1"]}}, "padding": {"s": "U0FNRQ=="}, "data_format": {"s": "TkhXQw=="}}}, {"name": "StatefulPartitionedCall/yamnet_frames/layer9/pointwise_conv/relu/Relu", "op": "_FusedConv2D", "input": ["StatefulPartitionedCall/yamnet_frames/layer9/depthwise_conv/depthwise", "StatefulPartitionedCall/yamnet_frames/layer9/pointwise_conv/Conv2D_weights", "StatefulPartitionedCall/yamnet_frames/layer9/pointwise_conv/Conv2D_bn_offset"], "device": "/device:CPU:0", "attr": {"fused_ops": {"list": {"s": ["Qmlhc0FkZA==", "UmVsdQ=="]}}, "explicit_paddings": {"list": {}}, "padding": {"s": "U0FNRQ=="}, "strides": {"list": {"i": ["1", "1", "1", "1"]}}, "T": {"type": "DT_FLOAT"}, "data_format": {"s": "TkhXQw=="}, "dilations": {"list": {"i": ["1", "1", "1", "1"]}}, "use_cudnn_on_gpu": {"b": true}, "num_args": {"i": "1"}, "epsilon": {"f": 0.0}}}, {"name": "StatefulPartitionedCall/yamnet_frames/layer10/depthwise_conv/depthwise", "op": "FusedDepthwiseConv2dNative", "input": ["StatefulPartitionedCall/yamnet_frames/layer9/pointwise_conv/relu/Relu", "StatefulPartitionedCall/yamnet_frames/layer10/depthwise_conv/depthwise_weights", "StatefulPartitionedCall/yamnet_frames/layer10/depthwise_conv/depthwise_bn_offset"], "attr": {"data_format": {"s": "TkhXQw=="}, "dilations": {"list": {"i": ["1", "1", "1", "1"]}}, "padding": {"s": "U0FNRQ=="}, "strides": {"list": {"i": ["1", "1", "1", "1"]}}, "num_args": {"i": "1"}, "explicit_paddings": {"list": {}}, "fused_ops": {"list": {"s": ["Qmlhc0FkZA==", "UmVsdQ=="]}}, "T": {"type": "DT_FLOAT"}}}, {"name": "StatefulPartitionedCall/yamnet_frames/layer10/pointwise_conv/relu/Relu", "op": "_FusedConv2D", "input": ["StatefulPartitionedCall/yamnet_frames/layer10/depthwise_conv/depthwise", "StatefulPartitionedCall/yamnet_frames/layer10/pointwise_conv/Conv2D_weights", "StatefulPartitionedCall/yamnet_frames/layer10/pointwise_conv/Conv2D_bn_offset"], "device": "/device:CPU:0", "attr": {"use_cudnn_on_gpu": {"b": true}, "explicit_paddings": {"list": {}}, "num_args": {"i": "1"}, "dilations": {"list": {"i": ["1", "1", "1", "1"]}}, "padding": {"s": "U0FNRQ=="}, "epsilon": {"f": 0.0}, "data_format": {"s": "TkhXQw=="}, "fused_ops": {"list": {"s": ["Qmlhc0FkZA==", "UmVsdQ=="]}}, "strides": {"list": {"i": ["1", "1", "1", "1"]}}, "T": {"type": "DT_FLOAT"}}}, {"name": "StatefulPartitionedCall/yamnet_frames/layer11/depthwise_conv/depthwise", "op": "FusedDepthwiseConv2dNative", "input": ["StatefulPartitionedCall/yamnet_frames/layer10/pointwise_conv/relu/Relu", "StatefulPartitionedCall/yamnet_frames/layer11/depthwise_conv/depthwise_weights", "StatefulPartitionedCall/yamnet_frames/layer11/depthwise_conv/depthwise_bn_offset"], "attr": {"padding": {"s": "U0FNRQ=="}, "T": {"type": "DT_FLOAT"}, "explicit_paddings": {"list": {}}, "fused_ops": {"list": {"s": ["Qmlhc0FkZA==", "UmVsdQ=="]}}, "num_args": {"i": "1"}, "dilations": {"list": {"i": ["1", "1", "1", "1"]}}, "strides": {"list": {"i": ["1", "1", "1", "1"]}}, "data_format": {"s": "TkhXQw=="}}}, {"name": "StatefulPartitionedCall/yamnet_frames/layer11/pointwise_conv/relu/Relu", "op": "_FusedConv2D", "input": ["StatefulPartitionedCall/yamnet_frames/layer11/depthwise_conv/depthwise", "StatefulPartitionedCall/yamnet_frames/layer11/pointwise_conv/Conv2D_weights", "StatefulPartitionedCall/yamnet_frames/layer11/pointwise_conv/Conv2D_bn_offset"], "device": "/device:CPU:0", "attr": {"data_format": {"s": "TkhXQw=="}, "num_args": {"i": "1"}, "explicit_paddings": {"list": {}}, "fused_ops": {"list": {"s": ["Qmlhc0FkZA==", "UmVsdQ=="]}}, "padding": {"s": "U0FNRQ=="}, "T": {"type": "DT_FLOAT"}, "epsilon": {"f": 0.0}, "strides": {"list": {"i": ["1", "1", "1", "1"]}}, "dilations": {"list": {"i": ["1", "1", "1", "1"]}}, "use_cudnn_on_gpu": {"b": true}}}, {"name": "StatefulPartitionedCall/yamnet_frames/layer12/depthwise_conv/depthwise", "op": "FusedDepthwiseConv2dNative", "input": ["StatefulPartitionedCall/yamnet_frames/layer11/pointwise_conv/relu/Relu", "StatefulPartitionedCall/yamnet_frames/layer12/depthwise_conv/depthwise_weights", "StatefulPartitionedCall/yamnet_frames/layer12/depthwise_conv/depthwise_bn_offset"], "attr": {"fused_ops": {"list": {"s": ["Qmlhc0FkZA==", "UmVsdQ=="]}}, "padding": {"s": "U0FNRQ=="}, "strides": {"list": {"i": ["1", "1", "1", "1"]}}, "data_format": {"s": "TkhXQw=="}, "dilations": {"list": {"i": ["1", "1", "1", "1"]}}, "T": {"type": "DT_FLOAT"}, "num_args": {"i": "1"}, "explicit_paddings": {"list": {}}}}, {"name": "StatefulPartitionedCall/yamnet_frames/layer12/pointwise_conv/relu/Relu", "op": "_FusedConv2D", "input": ["StatefulPartitionedCall/yamnet_frames/layer12/depthwise_conv/depthwise", "StatefulPartitionedCall/yamnet_frames/layer12/pointwise_conv/Conv2D_weights", "StatefulPartitionedCall/yamnet_frames/layer12/pointwise_conv/Conv2D_bn_offset"], "device": "/device:CPU:0", "attr": {"dilations": {"list": {"i": ["1", "1", "1", "1"]}}, "use_cudnn_on_gpu": {"b": true}, "fused_ops": {"list": {"s": ["Qmlhc0FkZA==", "UmVsdQ=="]}}, "T": {"type": "DT_FLOAT"}, "data_format": {"s": "TkhXQw=="}, "padding": {"s": "U0FNRQ=="}, "num_args": {"i": "1"}, "explicit_paddings": {"list": {}}, "epsilon": {"f": 0.0}, "strides": {"list": {"i": ["1", "1", "1", "1"]}}}}, {"name": "StatefulPartitionedCall/yamnet_frames/layer13/depthwise_conv/depthwise", "op": "FusedDepthwiseConv2dNative", "input": ["StatefulPartitionedCall/yamnet_frames/layer12/pointwise_conv/relu/Relu", "StatefulPartitionedCall/yamnet_frames/layer13/depthwise_conv/depthwise_weights", "StatefulPartitionedCall/yamnet_frames/layer13/depthwise_conv/depthwise_bn_offset"], "attr": {"padding": {"s": "U0FNRQ=="}, "explicit_paddings": {"list": {}}, "T": {"type": "DT_FLOAT"}, "strides": {"list": {"i": ["1", "2", "2", "1"]}}, "data_format": {"s": "TkhXQw=="}, "dilations": {"list": {"i": ["1", "1", "1", "1"]}}, "num_args": {"i": "1"}, "fused_ops": {"list": {"s": ["Qmlhc0FkZA==", "UmVsdQ=="]}}}}, {"name": "StatefulPartitionedCall/yamnet_frames/layer13/pointwise_conv/relu/Relu", "op": "_FusedConv2D", "input": ["StatefulPartitionedCall/yamnet_frames/layer13/depthwise_conv/depthwise", "StatefulPartitionedCall/yamnet_frames/layer13/pointwise_conv/Conv2D_weights", "StatefulPartitionedCall/yamnet_frames/layer13/pointwise_conv/Conv2D_bn_offset"], "device": "/device:CPU:0", "attr": {"strides": {"list": {"i": ["1", "1", "1", "1"]}}, "epsilon": {"f": 0.0}, "use_cudnn_on_gpu": {"b": true}, "T": {"type": "DT_FLOAT"}, "dilations": {"list": {"i": ["1", "1", "1", "1"]}}, "num_args": {"i": "1"}, "explicit_paddings": {"list": {}}, "data_format": {"s": "TkhXQw=="}, "fused_ops": {"list": {"s": ["Qmlhc0FkZA==", "UmVsdQ=="]}}, "padding": {"s": "U0FNRQ=="}}}, {"name": "StatefulPartitionedCall/yamnet_frames/layer14/depthwise_conv/depthwise", "op": "FusedDepthwiseConv2dNative", "input": ["StatefulPartitionedCall/yamnet_frames/layer13/pointwise_conv/relu/Relu", "StatefulPartitionedCall/yamnet_frames/layer14/depthwise_conv/depthwise_weights", "StatefulPartitionedCall/yamnet_frames/layer14/depthwise_conv/depthwise_bn_offset"], "attr": {"num_args": {"i": "1"}, "explicit_paddings": {"list": {}}, "strides": {"list": {"i": ["1", "1", "1", "1"]}}, "fused_ops": {"list": {"s": ["Qmlhc0FkZA==", "UmVsdQ=="]}}, "T": {"type": "DT_FLOAT"}, "dilations": {"list": {"i": ["1", "1", "1", "1"]}}, "padding": {"s": "U0FNRQ=="}, "data_format": {"s": "TkhXQw=="}}}, {"name": "StatefulPartitionedCall/yamnet_frames/layer14/pointwise_conv/relu/Relu", "op": "_FusedConv2D", "input": ["StatefulPartitionedCall/yamnet_frames/layer14/depthwise_conv/depthwise", "StatefulPartitionedCall/yamnet_frames/layer14/pointwise_conv/Conv2D_weights", "StatefulPartitionedCall/yamnet_frames/layer14/pointwise_conv/Conv2D_bn_offset"], "device": "/device:CPU:0", "attr": {"dilations": {"list": {"i": ["1", "1", "1", "1"]}}, "num_args": {"i": "1"}, "T": {"type": "DT_FLOAT"}, "data_format": {"s": "TkhXQw=="}, "strides": {"list": {"i": ["1", "1", "1", "1"]}}, "explicit_paddings": {"list": {}}, "fused_ops": {"list": {"s": ["Qmlhc0FkZA==", "UmVsdQ=="]}}, "epsilon": {"f": 0.0}, "padding": {"s": "U0FNRQ=="}, "use_cudnn_on_gpu": {"b": true}}}, {"name": "StatefulPartitionedCall/yamnet_frames/global_average_pooling2d_1/Mean", "op": "Mean", "input": ["StatefulPartitionedCall/yamnet_frames/layer14/pointwise_conv/relu/Relu", "StatefulPartitionedCall/yamnet_frames/global_average_pooling2d_1/Mean/reduction_indices"], "attr": {"Tidx": {"type": "DT_INT32"}, "T": {"type": "DT_FLOAT"}, "keep_dims": {"b": false}}}, {"name": "Identity", "op": "Identity", "input": ["StatefulPartitionedCall/yamnet_frames/global_average_pooling2d_1/Mean"], "attr": {"T": {"type": "DT_FLOAT"}}}, {"name": "StatefulPartitionedCall/yamnet_frames/dense_1/BiasAdd", "op": "_FusedMatMul", "input": ["StatefulPartitionedCall/yamnet_frames/global_average_pooling2d_1/Mean", "StatefulPartitionedCall/yamnet_frames/dense_1/MatMul/ReadVariableOp", "StatefulPartitionedCall/yamnet_frames/dense_1/BiasAdd/ReadVariableOp"], "device": "/device:CPU:0", "attr": {"num_args": {"i": "1"}, "T": {"type": "DT_FLOAT"}, "fused_ops": {"list": {"s": ["Qmlhc0FkZA=="]}}, "epsilon": {"f": 0.0}, "transpose_a": {"b": false}, "transpose_b": {"b": false}}}, {"name": "StatefulPartitionedCall/yamnet_frames/activation_1/Sigmoid", "op": "Sigmoid", "input": ["StatefulPartitionedCall/yamnet_frames/dense_1/BiasAdd"], "attr": {"T": {"type": "DT_FLOAT"}}}, {"name": "Identity_2", "op": "Identity", "input": ["StatefulPartitionedCall/yamnet_frames/activation_1/Sigmoid"], "attr": {"T": {"type": "DT_FLOAT"}}}], "library": {}, "versions": {"producer": 808}}, "weightsManifest": [{"paths": ["group1-shard1of4.bin", "group1-shard2of4.bin", "group1-shard3of4.bin", "group1-shard4of4.bin"], "weights": [{"name": "StatefulPartitionedCall/yamnet_frames/tf.signal.frame_2/frame/zeros_like", "shape": [2], "dtype": "int32"}, {"name": "StatefulPartitionedCall/yamnet_frames/tf.signal.frame_2/frame/mul/y", "shape": [], "dtype": "int32"}, {"name": "StatefulPartitionedCall/yamnet_frames/tf.signal.frame_2/frame/concat/axis", "shape": [], "dtype": "int32"}, {"name": "StatefulPartitionedCall/yamnet_frames/tf.signal.frame_2/frame/ones_like", "shape": [2], "dtype": "int32"}, {"name": "StatefulPartitionedCall/yamnet_frames/tf.signal.frame_2/frame/floordiv_3/y", "shape": [], "dtype": "int32"}, {"name": "StatefulPartitionedCall/yamnet_frames/tf.signal.frame_2/frame/concat_1/values_1/1", "shape": [], "dtype": "int32"}, {"name": "StatefulPartitionedCall/yamnet_frames/tf.signal.frame_2/frame/concat_1/axis", "shape": [], "dtype": "int32"}, {"name": "StatefulPartitionedCall/yamnet_frames/tf.signal.frame_2/frame/range_1/start", "shape": [], "dtype": "int32"}, {"name": "StatefulPartitionedCall/yamnet_frames/tf.signal.frame_2/frame/range_1/delta", "shape": [], "dtype": "int32"}, {"name": "StatefulPartitionedCall/yamnet_frames/tf.signal.frame_2/frame/Reshape_2/shape/1", "shape": [], "dtype": "int32"}, {"name": "StatefulPartitionedCall/yamnet_frames/tf.signal.frame_2/frame/Reshape_3", "shape": [1, 2], "dtype": "int32"}, {"name": "StatefulPartitionedCall/yamnet_frames/tf.signal.frame_2/frame/strided_slice", "shape": [], "dtype": "int32"}, {"name": "StatefulPartitionedCall/yamnet_frames/tf.signal.frame_2/frame/Maximum/x", "shape": [], "dtype": "int32"}, {"name": "StatefulPartitionedCall/yamnet_frames/tf.signal.frame_2/frame/add/x", "shape": [], "dtype": "int32"}, {"name": "StatefulPartitionedCall/yamnet_frames/tf.signal.frame_2/frame/Reshape/shape_1", "shape": [0], "dtype": "int32"}, {"name": "StatefulPartitionedCall/yamnet_frames/tf.signal.frame_2/frame/frame_step", "shape": [], "dtype": "int32"}, {"name": "StatefulPartitionedCall/yamnet_frames/tf.signal.frame_2/frame/frame_length", "shape": [], "dtype": "int32"}, {"name": "unknown_7", "shape": [512, 257], "dtype": "float32"}, {"name": "StatefulPartitionedCall/yamnet_frames/tf.compat.v1.pad_2/Pad/paddings/0_1", "shape": [2], "dtype": "int32"}, {"name": "unknown_5", "shape": [], "dtype": "int32"}, {"name": "unknown_4", "shape": [], "dtype": "int32"}, {"name": "StatefulPartitionedCall/yamnet_frames/tf.signal.frame_1/frame/zeros_like", "shape": [1], "dtype": "int32"}, {"name": "StatefulPartitionedCall/yamnet_frames/tf.signal.frame_1/frame/mul/y", "shape": [], "dtype": "int32"}, {"name": "StatefulPartitionedCall/yamnet_frames/tf.signal.frame_1/frame/concat/axis", "shape": [], "dtype": "int32"}, {"name": "StatefulPartitionedCall/yamnet_frames/tf.signal.frame_1/frame/ones_like", "shape": [1], "dtype": "int32"}, {"name": "StatefulPartitionedCall/yamnet_frames/tf.signal.frame_1/frame/floordiv_3/y", "shape": [], "dtype": "int32"}, {"name": "StatefulPartitionedCall/yamnet_frames/tf.signal.frame_1/frame/concat_1/values_1/1", "shape": [], "dtype": "int32"}, {"name": "StatefulPartitionedCall/yamnet_frames/tf.signal.frame_1/frame/concat_1/axis", "shape": [], "dtype": "int32"}, {"name": "StatefulPartitionedCall/yamnet_frames/tf.signal.frame_1/frame/range_1/start", "shape": [], "dtype": "int32"}, {"name": "StatefulPartitionedCall/yamnet_frames/tf.signal.frame_1/frame/range_1/delta", "shape": [], "dtype": "int32"}, {"name": "StatefulPartitionedCall/yamnet_frames/tf.signal.frame_1/frame/floordiv_2", "shape": [], "dtype": "int32"}, {"name": "StatefulPartitionedCall/yamnet_frames/tf.signal.frame_1/frame/Reshape_2/shape/1", "shape": [], "dtype": "int32"}, {"name": "StatefulPartitionedCall/yamnet_frames/tf.signal.frame_1/frame/Reshape_3", "shape": [1, 5], "dtype": "int32"}, {"name": "StatefulPartitionedCall/yamnet_frames/tf.signal.frame_1/frame/strided_slice", "shape": [], "dtype": "int32"}, {"name": "StatefulPartitionedCall/yamnet_frames/tf.signal.frame_1/frame/Maximum/x", "shape": [], "dtype": "int32"}, {"name": "StatefulPartitionedCall/yamnet_frames/tf.signal.frame_1/frame/add/x", "shape": [], "dtype": "int32"}, {"name": "StatefulPartitionedCall/yamnet_frames/tf.signal.frame_1/frame/Reshape/shape_1", "shape": [0], "dtype": "int32"}, {"name": "StatefulPartitionedCall/yamnet_frames/tf.signal.frame_1/frame/frame_step", "shape": [], "dtype": "int32"}, {"name": "StatefulPartitionedCall/yamnet_frames/tf.signal.frame_1/frame/frame_length", "shape": [], "dtype": "int32"}, {"name": "StatefulPartitionedCall/yamnet_frames/tf.compat.v1.pad_1/Pad/paddings/0/0", "shape": [], "dtype": "int32"}, {"name": "unknown_2", "shape": [], "dtype": "int32"}, {"name": "unknown_1", "shape": [], "dtype": "int32"}, {"name": "ConstantFolding/StatefulPartitionedCall/yamnet_frames/tf.math.truediv_1/truediv_recip", "shape": [], "dtype": "float32"}, {"name": "StatefulPartitionedCall/yamnet_frames/tf.__operators__.getitem_1/strided_slice/stack", "shape": [1], "dtype": "int32"}, {"name": "StatefulPartitionedCall/yamnet_frames/tf.__operators__.getitem_1/strided_slice/stack_1", "shape": [1], "dtype": "int32"}, {"name": "StatefulPartitionedCall/yamnet_frames/tf.__operators__.getitem_1/strided_slice/stack_2", "shape": [1], "dtype": "int32"}, {"name": "unknown", "shape": [], "dtype": "int32"}, {"name": "StatefulPartitionedCall/yamnet_frames/tf.signal.frame_1/frame/packed", "shape": [3], "dtype": "int32"}, {"name": "StatefulPartitionedCall/yamnet_frames/tf.signal.frame_1/frame/split/split_dim", "shape": [], "dtype": "int32"}, {"name": "StatefulPartitionedCall/yamnet_frames/tf.signal.frame_1/frame/concat_2/axis", "shape": [], "dtype": "int32"}, {"name": "unknown_3", "shape": [1, 400], "dtype": "float32"}, {"name": "StatefulPartitionedCall/yamnet_frames/tf.__operators__.getitem_2/strided_slice/stack", "shape": [1], "dtype": "int32"}, {"name": "StatefulPartitionedCall/yamnet_frames/tf.__operators__.getitem_2/strided_slice/stack_1", "shape": [1], "dtype": "int32"}, {"name": "StatefulPartitionedCall/yamnet_frames/tf.__operators__.getitem_2/strided_slice/stack_2", "shape": [1], "dtype": "int32"}, {"name": "StatefulPartitionedCall/yamnet_frames/tf.compat.v1.floor_div/FloorDiv/y", "shape": [], "dtype": "int32"}, {"name": "unknown_6", "shape": [512, 257], "dtype": "float32"}, {"name": "unknown_8", "shape": [257, 64], "dtype": "float32"}, {"name": "StatefulPartitionedCall/yamnet_frames/tf.__operators__.add_3/y", "shape": [], "dtype": "float32"}, {"name": "StatefulPartitionedCall/yamnet_frames/tf.signal.frame_2/frame/packed", "shape": [3], "dtype": "int32"}, {"name": "StatefulPartitionedCall/yamnet_frames/tf.signal.frame_2/frame/split/split_dim", "shape": [], "dtype": "int32"}, {"name": "StatefulPartitionedCall/yamnet_frames/tf.signal.frame_2/frame/concat_2/axis", "shape": [], "dtype": "int32"}, {"name": "StatefulPartitionedCall/yamnet_frames/reshape_1/strided_slice/stack", "shape": [1], "dtype": "int32"}, {"name": "StatefulPartitionedCall/yamnet_frames/reshape_1/strided_slice/stack_1", "shape": [1], "dtype": "int32"}, {"name": "StatefulPartitionedCall/yamnet_frames/reshape_1/strided_slice/stack_2", "shape": [1], "dtype": "int32"}, {"name": "StatefulPartitionedCall/yamnet_frames/reshape_1/Reshape/shape/1", "shape": [], "dtype": "int32"}, {"name": "StatefulPartitionedCall/yamnet_frames/reshape_1/Reshape/shape/2", "shape": [], "dtype": "int32"}, {"name": "StatefulPartitionedCall/yamnet_frames/reshape_1/Reshape/shape/3", "shape": [], "dtype": "int32"}, {"name": "StatefulPartitionedCall/yamnet_frames/global_average_pooling2d_1/Mean/reduction_indices", "shape": [2], "dtype": "int32"}, {"name": "StatefulPartitionedCall/yamnet_frames/dense_1/MatMul/ReadVariableOp", "shape": [1024, 521], "dtype": "float32"}, {"name": "StatefulPartitionedCall/yamnet_frames/dense_1/BiasAdd/ReadVariableOp", "shape": [521], "dtype": "float32"}, {"name": "StatefulPartitionedCall/yamnet_frames/layer1/conv/Conv2D_weights", "shape": [3, 3, 1, 32], "dtype": "float32"}, {"name": "StatefulPartitionedCall/yamnet_frames/layer12/pointwise_conv/Conv2D_bn_offset", "shape": [512], "dtype": "float32"}, {"name": "StatefulPartitionedCall/yamnet_frames/layer1/conv/Conv2D_bn_offset", "shape": [32], "dtype": "float32"}, {"name": "StatefulPartitionedCall/yamnet_frames/layer2/depthwise_conv/depthwise_weights", "shape": [3, 3, 32, 1], "dtype": "float32"}, {"name": "StatefulPartitionedCall/yamnet_frames/layer2/depthwise_conv/depthwise_bn_offset", "shape": [32], "dtype": "float32"}, {"name": "StatefulPartitionedCall/yamnet_frames/layer2/pointwise_conv/Conv2D_weights", "shape": [1, 1, 32, 64], "dtype": "float32"}, {"name": "StatefulPartitionedCall/yamnet_frames/layer2/pointwise_conv/Conv2D_bn_offset", "shape": [64], "dtype": "float32"}, {"name": "StatefulPartitionedCall/yamnet_frames/layer13/depthwise_conv/depthwise_weights", "shape": [3, 3, 512, 1], "dtype": "float32"}, {"name": "StatefulPartitionedCall/yamnet_frames/layer3/depthwise_conv/depthwise_weights", "shape": [3, 3, 64, 1], "dtype": "float32"}, {"name": "StatefulPartitionedCall/yamnet_frames/layer3/depthwise_conv/depthwise_bn_offset", "shape": [64], "dtype": "float32"}, {"name": "StatefulPartitionedCall/yamnet_frames/layer3/pointwise_conv/Conv2D_weights", "shape": [1, 1, 64, 128], "dtype": "float32"}, {"name": "StatefulPartitionedCall/yamnet_frames/layer3/pointwise_conv/Conv2D_bn_offset", "shape": [128], "dtype": "float32"}, {"name": "StatefulPartitionedCall/yamnet_frames/layer13/depthwise_conv/depthwise_bn_offset", "shape": [512], "dtype": "float32"}, {"name": "StatefulPartitionedCall/yamnet_frames/layer4/depthwise_conv/depthwise_weights", "shape": [3, 3, 128, 1], "dtype": "float32"}, {"name": "StatefulPartitionedCall/yamnet_frames/layer4/depthwise_conv/depthwise_bn_offset", "shape": [128], "dtype": "float32"}, {"name": "StatefulPartitionedCall/yamnet_frames/layer4/pointwise_conv/Conv2D_weights", "shape": [1, 1, 128, 128], "dtype": "float32"}, {"name": "StatefulPartitionedCall/yamnet_frames/layer4/pointwise_conv/Conv2D_bn_offset", "shape": [128], "dtype": "float32"}, {"name": "StatefulPartitionedCall/yamnet_frames/layer5/depthwise_conv/depthwise_weights", "shape": [3, 3, 128, 1], "dtype": "float32"}, {"name": "StatefulPartitionedCall/yamnet_frames/layer5/depthwise_conv/depthwise_bn_offset", "shape": [128], "dtype": "float32"}, {"name": "StatefulPartitionedCall/yamnet_frames/layer5/pointwise_conv/Conv2D_weights", "shape": [1, 1, 128, 256], "dtype": "float32"}, {"name": "StatefulPartitionedCall/yamnet_frames/layer13/pointwise_conv/Conv2D_weights", "shape": [1, 1, 512, 1024], "dtype": "float32"}, {"name": "StatefulPartitionedCall/yamnet_frames/layer5/pointwise_conv/Conv2D_bn_offset", "shape": [256], "dtype": "float32"}, {"name": "StatefulPartitionedCall/yamnet_frames/layer6/depthwise_conv/depthwise_weights", "shape": [3, 3, 256, 1], "dtype": "float32"}, {"name": "StatefulPartitionedCall/yamnet_frames/layer6/depthwise_conv/depthwise_bn_offset", "shape": [256], "dtype": "float32"}, {"name": "StatefulPartitionedCall/yamnet_frames/layer6/pointwise_conv/Conv2D_weights", "shape": [1, 1, 256, 256], "dtype": "float32"}, {"name": "StatefulPartitionedCall/yamnet_frames/layer13/pointwise_conv/Conv2D_bn_offset", "shape": [1024], "dtype": "float32"}, {"name": "StatefulPartitionedCall/yamnet_frames/layer6/pointwise_conv/Conv2D_bn_offset", "shape": [256], "dtype": "float32"}, {"name": "StatefulPartitionedCall/yamnet_frames/layer7/depthwise_conv/depthwise_weights", "shape": [3, 3, 256, 1], "dtype": "float32"}, {"name": "StatefulPartitionedCall/yamnet_frames/layer7/depthwise_conv/depthwise_bn_offset", "shape": [256], "dtype": "float32"}, {"name": "StatefulPartitionedCall/yamnet_frames/layer7/pointwise_conv/Conv2D_weights", "shape": [1, 1, 256, 512], "dtype": "float32"}, {"name": "StatefulPartitionedCall/yamnet_frames/layer7/pointwise_conv/Conv2D_bn_offset", "shape": [512], "dtype": "float32"}, {"name": "StatefulPartitionedCall/yamnet_frames/layer14/depthwise_conv/depthwise_weights", "shape": [3, 3, 1024, 1], "dtype": "float32"}, {"name": "StatefulPartitionedCall/yamnet_frames/layer8/depthwise_conv/depthwise_weights", "shape": [3, 3, 512, 1], "dtype": "float32"}, {"name": "StatefulPartitionedCall/yamnet_frames/layer8/depthwise_conv/depthwise_bn_offset", "shape": [512], "dtype": "float32"}, {"name": "StatefulPartitionedCall/yamnet_frames/layer8/pointwise_conv/Conv2D_weights", "shape": [1, 1, 512, 512], "dtype": "float32"}, {"name": "StatefulPartitionedCall/yamnet_frames/layer8/pointwise_conv/Conv2D_bn_offset", "shape": [512], "dtype": "float32"}, {"name": "StatefulPartitionedCall/yamnet_frames/layer14/depthwise_conv/depthwise_bn_offset", "shape": [1024], "dtype": "float32"}, {"name": "StatefulPartitionedCall/yamnet_frames/layer9/depthwise_conv/depthwise_weights", "shape": [3, 3, 512, 1], "dtype": "float32"}, {"name": "StatefulPartitionedCall/yamnet_frames/layer9/depthwise_conv/depthwise_bn_offset", "shape": [512], "dtype": "float32"}, {"name": "StatefulPartitionedCall/yamnet_frames/layer9/pointwise_conv/Conv2D_weights", "shape": [1, 1, 512, 512], "dtype": "float32"}, {"name": "StatefulPartitionedCall/yamnet_frames/layer9/pointwise_conv/Conv2D_bn_offset", "shape": [512], "dtype": "float32"}, {"name": "StatefulPartitionedCall/yamnet_frames/layer10/depthwise_conv/depthwise_weights", "shape": [3, 3, 512, 1], "dtype": "float32"}, {"name": "StatefulPartitionedCall/yamnet_frames/layer10/depthwise_conv/depthwise_bn_offset", "shape": [512], "dtype": "float32"}, {"name": "StatefulPartitionedCall/yamnet_frames/layer10/pointwise_conv/Conv2D_weights", "shape": [1, 1, 512, 512], "dtype": "float32"}, {"name": "StatefulPartitionedCall/yamnet_frames/layer14/pointwise_conv/Conv2D_weights", "shape": [1, 1, 1024, 1024], "dtype": "float32"}, {"name": "StatefulPartitionedCall/yamnet_frames/layer10/pointwise_conv/Conv2D_bn_offset", "shape": [512], "dtype": "float32"}, {"name": "StatefulPartitionedCall/yamnet_frames/layer11/depthwise_conv/depthwise_weights", "shape": [3, 3, 512, 1], "dtype": "float32"}, {"name": "StatefulPartitionedCall/yamnet_frames/layer11/depthwise_conv/depthwise_bn_offset", "shape": [512], "dtype": "float32"}, {"name": "StatefulPartitionedCall/yamnet_frames/layer11/pointwise_conv/Conv2D_weights", "shape": [1, 1, 512, 512], "dtype": "float32"}, {"name": "StatefulPartitionedCall/yamnet_frames/layer14/pointwise_conv/Conv2D_bn_offset", "shape": [1024], "dtype": "float32"}, {"name": "StatefulPartitionedCall/yamnet_frames/layer11/pointwise_conv/Conv2D_bn_offset", "shape": [512], "dtype": "float32"}, {"name": "StatefulPartitionedCall/yamnet_frames/layer12/depthwise_conv/depthwise_weights", "shape": [3, 3, 512, 1], "dtype": "float32"}, {"name": "StatefulPartitionedCall/yamnet_frames/layer12/depthwise_conv/depthwise_bn_offset", "shape": [512], "dtype": "float32"}, {"name": "StatefulPartitionedCall/yamnet_frames/layer12/pointwise_conv/Conv2D_weights", "shape": [1, 1, 512, 512], "dtype": "float32"}, {"name": "ConstantFolding/StatefulPartitionedCall/yamnet_frames/tf.compat.v1.pad_1/Pad/paddings_const_axis", "shape": [], "dtype": "int32"}, {"name": "ConstantFolding/StatefulPartitionedCall/yamnet_frames/tf.signal.frame_1/frame/concat/values_1_const_axis", "shape": [], "dtype": "int32"}, {"name": "ConstantFolding/StatefulPartitionedCall/yamnet_frames/tf.signal.frame_2/frame/concat/values_1_const_axis", "shape": [], "dtype": "int32"}]}]}